ai4realnet_orchestrators/power_grid/framework/trained_models/RLPerturbAgent/trained_rlpa_0.pth (torch, 459278 bytes, 6 tensors)

weight f4 [128, 467]
000000 2f df c2 3c fb 7f 6a 3d 97 73 be bd 69 a3 c8 3e
       0.023788063 0.057250958 -0.09299391 0.39187172
000010 01 55 11 3c 0d 7a b5 be 8e a1 03 bc 18 36 16 be
       0.008870364 -0.3544468 -0.008034123 -0.14669073
000020 ac 0f c6 bd b2 f1 4e bf 0f 7f 75 bf 26 2a 2f 3d
       -0.09670958 -0.8083755 -0.95897 0.042764805
000030 0b 96 ca be 68 52 4e be 31 48 09 bf 3d f1 16 3f
       -0.395676 -0.20148623 -0.5362578 0.5896185
000040 3c b2 61 3e e1 13 43 bf f5 49 17 bb a4 73 34 3c
       0.22040647 -0.7620221 -0.0023084853 0.011013899
000050 4a 97 8e 3c c5 5d 21 3c 03 40 c0 3c 14 73 5d bb
       0.017406125 0.009849017 0.023468023 -0.0033790516
000060 12 73 34 be 21 b6 41 be a8 e6 44 3c 04 06 dd bd
       -0.17622021 -0.18917133 0.012017883 -0.10792163
000070 b5 37 6a be 07 2a b4 3d 31 35 57 3d 3b e6 7a bb
       -0.22872813 0.087970786 0.05254096 -0.00382842
000080 ed 0b c5 bd c7 19 da 3d 0a 35 18 bd 57 a7 0c be
       -0.09621415 0.10649448 -0.037159957 -0.1373571
000090 fa 03 45 be 2a a0 d9 bd 6d d0 fd bd 9f 84 26 be
       -0.19239798 -0.10626252 -0.1239327 -0.16261528
0000a0 47 90 89 be 97 58 40 ba e2 5c d7 bc f1 24 e6 bd
       -0.26867887 -0.00073374197 -0.026289407 -0.11237515
0000b0 63 d3 8b 3d 4a c1 14 be 31 bd 54 3c 6d f2 1d 3c
       0.06827428 -0.14526859 0.01298456 0.009640318
0000c0 e2 74 5c 3d 15 4c 01 3d 21 10 e4 3c 98 c8 97 3c
       0.053822406 0.031566698 0.027839722 0.018528268
0000d0 83 46 1c 3d fe 8c 66 3c cf b7 e2 3c e9 3d 18 3d
       0.038153183 0.014071701 0.027675537 0.037168417
0000e0 4e 05 2a 3d 08 64 08 3d f1 30 9a 3d 36 b3 cd bd
       0.041508965 0.033298522 0.07528866 -0.100439474
0000f0 1f 33 9b 3d 12 23 b6 3e db ba 01 3e 15 56 86 3e
       0.0757811 0.35573632 0.12668936 0.2623755
000100 e0 94 1c 3f 6e 87 93 3c 99 8e bf 3e 36 0b 8d bf
       0.61164665 0.018008914 0.3741348 -1.1019046
000110 5c 76 0a bf cc 6d 59 bf f6 27 a2 3e 29 11 49 3f
       -0.5408685 -0.8493316 0.31671113 0.7854181
000120 59 e8 61 38 3b ca d7 be 85 83 8e 3f 67 ae 73 3f
       5.386057e-05 -0.42146477 1.1133887 0.9518799
000130 f6 0c f7 3d 6b d3 eb 3e 37 d2 78 bf d5 82 b6 3e
       0.12063019 0.46059737 -0.9719576 0.35646692
000140 52 27 7e 3e 2b 3e 6c bf 9b 27 a9 bd 88 ae e9 3e
       0.24819687 -0.9228236 -0.08259507 0.4564097
000150 ae 0b 31 bf db dc b7 be 50 42 b1 be ef 51 59 3f
       -0.69158447 -0.35910687 -0.34620905 0.84890646
000160 e5 0e 4e 3f 10 a6 85 3f 7a 0d 8a bf c2 3a 7a bf
       0.8049148 1.0441303 -1.0785363 -0.9774591
000170 2d b0 02 3e a3 a8 e9 be 32 4a d0 bf 43 d0 61 be
       0.12762518 -0.45636472 -1.6272643 -0.22052102
000180 95 dd cc be d3 21 0a bc dc 58 2e bc 7b 3a c1 3b
       -0.40012804 -0.008430916 -0.010641303 0.005896864
000190 51 10 e5 3c e0 45 cd 3a bf 1f 24 3b 6c 28 8e 3d
       0.027961882 0.0015661083 0.0025043336 0.069413036
0001a0 30 de dc 3b 52 5d 09 3c ac 45 0e 3d b2 29 fa 3c
       0.006740354 0.008384066 0.034734413 0.03053746
0001b0 33 a3 ee 3c db 2d a8 3c 11 5c cf 3d ad ad e1 3c
       0.029130554 0.020529678 0.10124982 0.027548635
0001c0 97 91 7d bc fa 93 92 3c 84 bc 6a bb 04 a2 3a 3a
       -0.015476606 0.017892826 -0.003581793 0.0007119479
0001d0 b1 f5 65 bb 53 eb 0b 3d e3 4d 07 be b5 2b 29 3d
       -0.003508907 0.03415997 -0.13213305 0.041301448
0001e0 8d d6 b7 3b 69 9e 02 be 7a ec ed bd be ba ca be
       0.0056102932 -0.12755741 -0.1161737 -0.39595598
0001f0 5a d3 8a 3d 09 1c 18 be 67 3e 0f 3d cb f0 a4 be
       0.06778593 -0.14854445 0.03497162 -0.3221496
000200 17 ac f9 bd f8 9d 90 bc 22 7d 24 be e1 2e 61 bd
       -0.12191027 -0.01765345 -0.1606336 -0.054976348
000210 8a b6 e9 3b 9d d4 13 be bf 26 18 3f 08 16 6e 3e
       0.007132356 -0.14436574 0.5943412 0.23250592
000220 1b 26 88 bd 3b e4 18 bd cc 49 b3 bd a5 5e ba 3d
       -0.06647893 -0.037327033 -0.0875431 0.09100083
000230 ee 62 9b bd 9d ea c5 be fa d7 19 be 49 c0 86 be
       -0.07587229 -0.38655558 -0.15023795 -0.26318577
000240 4b 38 1b bf 67 32 b0 bc b0 9c bb be 41 aa 8d 3f
       -0.6063277 -0.021508409 -0.3664298 1.1067582
000250 f9 cd 0e 3f d1 19 50 3f 73 09 9e be 39 17 49 bf
       0.5578304 0.8128939 -0.30866584 -0.7855106
000260 fb 35 05 bb 92 1a d9 3e ed f7 8e bf 10 0c 73 bf
       -0.0020326364 0.42403084 -1.1169411 -0.9494028
000270 60 97 fe bd 2c 9a 00 bf a1 57 7b 3f 49 da cf be
       -0.12431216 -0.5023525 0.98180586 -0.40596226
000280 f6 af 81 be 78 53 4c 3f d9 d5 6e 3c cb d0 ea be
       -0.2532956 0.79814863 0.014577352 -0.4586242
000290 e8 50 37 3f 06 4c c5 3e a3 0c b6 3e ca f1 5c bf
       0.7160783 0.38534564 0.35556516 -0.8630644
0002a0 98 02 5b bf 79 08 84 bf 8a 69 8e 3f 8a 26 83 3f
       -0.8555083 -1.0315086 1.1125958 1.0246136
0002b0 2c cc b1 bd 0e 72 be 3e 89 b9 c0 3f 6e 22 64 3e
       -0.08681521 0.37196392 1.5056621 0.22278759
0002c0 52 59 bd 3e a9 27 5e 3c f1 eb 88 3d c8 7a 62 3b
       0.36982208 0.01355926 0.06685627 0.0034558047
0002d0 93 ed 8b 3c c4 f5 01 3d fd 32 c8 3c d9 d4 84 3d
       0.017081058 0.03172852 0.024438376 0.0648591
0002e0 17 9f 75 3c 05 38 b8 3c 9f cc a4 3c 03 47 aa 3c
       0.014991543 0.02248765 0.020117102 0.020785814
0002f0 3a dc 23 3d 93 57 08 3d 5c a7 ad 3d 56 d5 b8 3c
       0.040004946 0.033286642 0.08479187 0.022562664
000300 21 d3 fb 3b 79 c1 27 3d 3a 5b 3d 3d 60 96 dc 3c
       0.0076850806 0.040955994 0.04622958 0.026927173
000310 ac 1e 94 3c 6d d4 a3 3d ea 4b 1a be f2 76 d4 3d
       0.018081032 0.079995014 -0.15068021 0.103742495
000320 dc 63 ea bc 78 44 5d be 8c d3 f0 bd 6a b3 cd be
       -0.02861207 -0.2160815 -0.11759099 -0.40175945
000330 bc 20 3a 3d e5 cb 1f be 7e ec 83 3d 14 2f ae be
       0.045441374 -0.15605123 0.06441592 -0.34020293
000340 c0 bc 08 be 2c 42 1e bd a5 28 3a be 1a 75 34 bd
       -0.13353252 -0.038637325 -0.18179567 -0.04405699
000350 e5 e2 91 3c 3d 55 26 be 42 e7 49 3f 10 ec 80 3e
       0.017808387 -0.16243453 0.78868496 0.251801
000360 ca 04 68 bd c7 78 1e 3d d5 1a b5 bd 19 98 55 3d
       -0.056645192 0.0386894 -0.088430084 0.052147005
000370 27 9b 28 3c 90 33 03 be 7e 76 dc bd d1 18 9f be
       0.010290897 -0.12812638 -0.10764788 -0.3107362
000380 9b 3d b6 3d 61 58 c6 bd 5a c2 9f 3d d5 d6 8c be
       0.08898469 -0.09684826 0.078007415 -0.27507654
000390 47 c4 a6 bd c0 33 3a 3c e6 93 30 be d1 09 18 bc
       -0.08142906 0.011364877 -0.17243919 -0.009279684
0003a0 70 b5 5e 3b 7b f9 1d be f8 d7 0f 3f b8 7f 6e 3e
       0.0033982657 -0.154272 0.5618892 0.23290908
0003b0 54 1e 70 bd 6f cc f6 3c 9a 27 fa 3c 96 09 07 3c
       -0.058622673 0.030126778 0.030536462 0.008242032
0003c0 06 85 83 3c 1a 8d 0e 3d fa 9a a2 3b df 94 07 3d
       0.016054641 0.034802534 0.0049623223 0.03310096
0003d0 fb c0 f2 3c 23 ab 11 3d 7f 7b 19 3c a3 12 c5 3c
       0.029633036 0.0355636 0.009367823 0.024056738
0003e0 2b 7f 04 3c 64 85 0b 3c 1d b7 e4 3d c1 97 ef 3c
       0.00808696 0.0085156895 0.111677386 0.029247167
0003f0 f4 63 b3 3c 6e a3 53 3c 21 37 d9 3c 21 75 2d 3c
       0.021898247 0.012917383 0.026515545 0.010587008

bias f4 [128]
000000 d3 b3 0d 3d 7b f1 36 3b 23 55 1d 3b 55 01 0f 3d
       0.034595322 0.002791493 0.0024007044 0.03491338
000010 aa 53 90 3c a0 c1 1b 3e ae 0e 2c bb 7b cb 27 3b
       0.01761802 0.15210581 -0.0026253867 0.0025603462
000020 ef 0e bb 3d 8f 57 8d 3d 58 19 ae 3b b6 71 0d bc
       0.09133708 0.06901466 0.00531308 -0.008633068
000030 37 18 0d 3e 98 e4 85 3d 0f 01 19 3d f5 12 7a 3c
       0.13778768 0.065377414 0.037354525 0.015263309
000040 34 0f 1f 3d 1d 55 83 3c 8f 7e 1f 3c e4 da 1d bc
       0.03883286 0.016031796 0.009734764 -0.009634707
000050 cb e3 33 3d 0b c8 97 3d fa 25 a9 3b a9 de 1f bc
       0.043918412 0.07411202 0.005161998 -0.009757676
000060 6c ae 58 3b 12 a7 52 ba 06 54 c6 3d ad e6 a1 3d
       0.0033062948 -0.00080357597 0.09683995 0.07905326
000070 e5 1c 6d 3d dc 76 40 bc 1d 24 1e 3d 5c 5d fb 3c
       0.057888884 -0.011747088 0.03860866 0.030684166
000080 9c 79 dc 3b 60 23 d9 3b 0e d5 f7 3d 7d 64 1c 3d
       0.006728364 0.0066265315 0.12101184 0.03818177
000090 b2 0f 93 bc 58 5d 3e bc cc 18 b3 3c 28 c0 e7 3b
       -0.01795182 -0.011618935 0.02186241 0.0070724674
0000a0 64 72 0f bb bf af 21 3b a3 5e 11 3d 5a e4 07 3c
       -0.002188825 0.0024671403 0.035490643 0.008294189
0000b0 b3 b5 50 3c 6f 45 57 bc 54 a5 14 3e fd ed 29 3c
       0.012738633 -0.013139113 0.14516193 0.010371682
0000c0 67 d8 42 bc e3 65 18 bb 5f 76 38 3c 03 bf 5b 3c
       -0.011892415 -0.0023254089 0.011258691 0.01341224
0000d0 ce 33 0b 3d f3 dc a8 3c 3a 12 5c bc 46 3c 26 3c
       0.03398495 0.02061317 -0.01343208 0.010146206
0000e0 6b c6 e1 3b e8 ba a1 3b c8 20 52 3d a4 2b 02 3e
       0.0068901083 0.004935611 0.051300794 0.1271196
0000f0 e6 c9 b5 3d 0a b8 ec 3d 0f 01 0c bc 59 02 0c 3d
       0.088764 0.1155854 -0.008545174 0.034181926
000100 74 ca 7a 3c 90 b7 bc ba c5 8e 65 bc 2c 4d 6b 3c
       0.015307058 -0.0014397968 -0.01401109 0.014361661
000110 3f 0f d4 3b 43 73 82 3c 50 3a 39 3c 6d c4 c9 3c
       0.006471544 0.015924102 0.011305407 0.024629796
000120 69 e1 10 3d 31 26 08 3e d2 86 8e 3b 0a 36 22 3d
       0.035371218 0.13295819 0.004349568 0.039602317
000130 4e 70 45 ba 45 9a 2e 3c 04 c6 0b 3c 6c b6 27 bb
       -0.00075316883 0.010656898 0.008531097 -0.002559091
000140 34 4c 51 bc 39 fa 93 3d 46 30 15 ba 74 6d e2 3d
       -0.012774516 0.072254606 -0.0005691092 0.11056033
000150 d9 61 30 bc e1 8a 9c 3b 19 e3 7e ba 64 df 26 3c
       -0.010765516 0.004777298 -0.0009723171 0.010185096
000160 1f 49 a5 3c 81 6e 35 3c 8e 78 d1 3c 31 54 10 3e
       0.020176468 0.011073709 0.02557018 0.14094616
000170 ab 73 a5 bb a7 ba 76 3b 2b 90 10 3c 3a e5 ce 3d
       -0.005049189 0.0037647875 0.008823435 0.10102315
000180 cc 1a b2 3d fd cb e6 3c 3b f8 1b 37 80 25 81 3b
       0.08696517 0.028173441 9.296516e-06 0.003941238
000190 d3 cc 3a 3c 30 b0 21 3e ed 70 02 3e 38 c0 32 3e
       0.011401373 0.15789866 0.1273839 0.17456138
0001a0 48 ef bf 3d 13 f2 39 3c 5f 9b e2 3b e6 c1 56 bc
       0.09371811 0.011349219 0.0069154943 -0.013107752
0001b0 a9 d6 20 3e c7 cc 6b 3c 1f c0 50 3d f5 01 62 3c
       0.15706886 0.014392084 0.05096447 0.013794412
0001c0 ff e8 88 bc 6a ef 84 bb c5 72 34 3c 29 11 92 bc
       -0.016712664 -0.0040568607 0.011013691 -0.017830448
0001d0 1d 9f c9 3b 7b 3c 10 3d 2a 69 1b 3c 13 8d 98 bb
       0.006153001 0.03521393 0.009485522 -0.004655489
0001e0 62 ee d0 3d e9 e0 01 bc 7f f3 fe 3c db b4 b4 3b
       0.10201718 -0.007927158 0.031121967 0.0055147237
0001f0 88 23 db 3c 65 41 64 3c 20 70 d2 3c 63 33 c1 3d
       0.026750341 0.013931607 0.025688231 0.09433629

weight f4 [128, 128]
000000 67 6c ba bd 0f 90 7c 3c 76 a3 5e 3c 6c 1f 13 be
       -0.09102707 0.015415206 0.013588777 -0.14367455
000010 62 b4 ff bd 02 17 69 3e a2 35 94 bc af 49 8d 3c
       -0.12485577 0.22762683 -0.01809198 0.01724705
000020 ee 34 d2 3f ff 59 e2 3f bd ae ef 3c 6f 5a 00 3b
       1.6422403 1.7683715 0.029258126 0.0019585153
000030 ca 8b 4e 3e 8a 4e 8e 3e ef 28 09 3f 27 7a bd 3e
       0.20170513 0.27794296 0.53578085 0.37007257
000040 d5 c8 c2 3c a5 55 01 bd f6 09 d7 39 95 03 c5 bb
       0.023777405 -0.031575818 0.00041015417 -0.00601239
000050 69 ce 04 3f 10 50 e2 3e 63 0d 20 3c 05 d5 f2 bc
       0.51877457 0.44201708 0.009768817 -0.029642591
000060 4d 9b 88 bc c5 ea b1 3b 81 06 9f 3e 8f 37 01 40
       -0.016675616 0.005429598 0.3105965 2.019016
000070 05 13 34 3f 8b a2 66 3c ad f6 e4 3e aa d1 26 be
       0.7034152 0.014076839 0.4471945 -0.16290918
000080 48 ce 53 3b 69 a4 9b 3b cf a1 88 3e bf 71 70 bd
       0.0032318998 0.004749824 0.2668595 -0.058702227
000090 a2 09 57 bc 5b 7f e0 3c c2 c4 05 be 74 36 a1 bd
       -0.013124855 0.027404478 -0.13063338 -0.07871714
0000a0 8c 67 f8 3c 73 73 ed 3e f6 8f 1a 3f 8a b2 25 3c
       0.030322812 0.46377143 0.60375917 0.010113368
0000b0 62 81 28 3b 4d 6f 13 ba 66 96 65 3e c3 f6 d2 3e
       0.0025711884 -0.000562419 0.22420654 0.4120389
0000c0 5a dd a2 bd 70 fd ac 3c 8a 62 82 3c 4f 5b 44 bc
       -0.07952376 0.021116942 0.015916128 -0.01198466
0000d0 b9 58 0b be ea 1a 28 bd 81 81 7f bc 61 89 14 bc
       -0.13608064 -0.041041292 -0.015594841 -0.009065957
0000e0 ba ca 76 be 4f ad 40 3c b7 77 41 3f 1a cb 70 3e
       -0.24100772 0.01176007 0.75573295 0.23514977
0000f0 1d ec a7 3e 3f eb 8c 3e d0 89 91 39 d2 74 bd 3d
       0.32797328 0.2752323 0.00027759233 0.09250797
000100 59 d2 94 3b 61 6b 0f 3c 25 87 85 bc 3d 84 32 be
       0.004541677 0.0087536285 -0.016299793 -0.17433257
000110 b9 d1 1d be b9 81 5d 3c ba 22 4a 3c 2e b8 bc 3e
       -0.15412034 0.013519698 0.012337381 0.36859268
000120 2c ed 7a 3e 4e e3 76 3e ec c2 d7 bc 14 d1 10 bd
       0.24504536 0.24110147 -0.026338063 -0.035355642
000130 bd 25 1d 3b d7 fb c3 bb 46 ee 9e bc a2 df af 3b
       0.0023978793 -0.0059809494 -0.019400727 0.0053672353
000140 2a 8d f5 3c ca f4 f0 3f 7e df d1 3c 6c e0 82 3e
       0.029974539 1.8824704 0.025619265 0.25561845
000150 5c 84 89 3c ab 4e dc 3c 6c 50 b5 bc 7b aa 81 3c
       0.016786747 0.02689298 -0.022133075 0.015828362
000160 ab d3 05 be 41 5e ed bc f7 d7 42 be a6 48 6b 3e
       -0.13069026 -0.028975608 -0.19027697 0.22976932
000170 86 ff d9 bb aa 84 54 3b 48 80 08 3a e7 a3 89 3e
       -0.006652775 0.0032427707 0.00052071037 0.2688286
000180 f6 cd e3 3f 7e 4e d9 3e 43 13 35 3b a9 42 a2 3c
       1.7797229 0.42442697 0.002762989 0.019807177
000190 13 ac fb 3c 78 4c 48 3e 05 54 6c 3e 9e 36 4b 3e
       0.0307217 0.1956042 0.23078926 0.19845054
0001a0 92 0b 10 40 cc 12 52 bc 5f b8 bb bd c1 0c 20 3c
       2.2507062 -0.012821864 -0.09166025 0.009768666
0001b0 07 7b 70 3e 81 54 c3 bc 43 1a d8 3e 76 d2 55 bd
       0.23484431 -0.023844006 0.42207536 -0.052202664
0001c0 24 af 9f bb 32 38 13 bc 27 1f c9 bc 29 c8 01 bd
       -0.0048731733 -0.008985566 -0.024550987 -0.03168503
0001d0 84 55 b8 3c ba e5 02 be 7a 92 00 3d 19 16 91 3c
       0.022501715 -0.12782946 0.03138969 0.017710732
0001e0 7b 13 ab 3e b3 e7 a4 bc a7 ce bb bd 8e 04 4d 3c
       0.334133 -0.020130014 -0.09170275 0.012513293
0001f0 25 9d 11 3f 1a 35 9e 3a 66 cb 5e 3e a2 e7 c2 3e
       0.5688041 0.0012070269 0.21757278 0.38067347
000200 8f 65 ac bd 10 33 91 3c 63 6b 1c 3c 84 53 f9 bd
       -0.08417808 0.017724544 0.009547087 -0.121741325
000210 9e ec 91 bd 94 f6 66 3e 75 28 94 bc 32 ed d5 bc
       -0.07125209 0.22555 -0.018085698 -0.02611408
000220 ee c8 d6 3f 87 b7 eb 3f a6 80 c6 bc 10 1a dd 3c
       1.6780069 1.8415383 -0.024231266 0.026989967
000230 b7 d7 70 3e 2e 78 ac 3e f9 a6 09 3f 49 8b c0 3e
       0.23519789 0.3368544 0.53770405 0.37606266
000240 a0 22 77 39 25 30 78 3c fd f9 3a bb 76 a4 e8 bb
       0.00023568654 0.015148197 -0.0028530352 -0.0070996834
000250 49 00 0c 3f ef 18 dc 3e 72 8f e3 3b 33 b1 fd 3b
       0.54687935 0.42987773 0.0069445902 0.007742071
000260 4d 54 e1 3c 15 25 7d 3c 9e 51 8f 3e 37 66 07 40
       0.027506018 0.015450736 0.27991956 2.1156137
000270 7c d1 41 3f 75 1b eb 3c 9f 7e e8 3e a6 11 09 be
       0.7571027 0.028699616 0.45409104 -0.13385639
000280 88 bc de 3c 7f 4b 75 bc 55 11 6e 3e a2 7d af bd
       0.027189508 -0.014971613 0.23248799 -0.085688844
000290 46 1f d9 3b 78 7a fc bc ee 91 22 be f1 9a a1 bd
       0.0066260425 -0.030820116 -0.1587598 -0.07890881
0002a0 e5 e3 cc 3c f0 0f d1 3e ff 96 09 3f 55 c8 ad 3c
       0.025011012 0.40832472 0.53746027 0.02121369
0002b0 8e 63 98 bc 5f f3 1d 3b 23 78 34 3e b3 ee e6 3e
       -0.018602159 0.002410136 0.17623954 0.45103988
0002c0 c7 a2 83 bd 5a 4a 5d 3c a6 35 95 3c 38 97 5c 3c
       -0.06427532 0.013506496 0.018214058 0.013463788
0002d0 99 8d 1f be 8e cc 84 bd e2 5f be 3b c2 aa 0e 3c
       -0.15581359 -0.06484328 0.00580977 0.008707704
0002e0 de 7f 54 be 41 71 f6 bc 2e 49 55 3f c3 d7 70 3e
       -0.20751902 -0.0300833 0.8331479 0.23519807
0002f0 87 be af 3e 29 05 7b 3e 1d b4 25 ba c3 f2 09 3e
       0.34325048 0.24513687 -0.00063210895 0.13471512
000300 99 43 b0 3a 40 e9 cf bc 94 3a bd 3c 73 4b 3c be
       0.001344788 -0.025379777 0.023099221 -0.18388157
000310 4e 55 32 be 64 8b c7 bb dd b1 ee 3c d3 aa c9 3e
       -0.17415354 -0.0060896147 0.029137546 0.3938814
000320 9c 42 85 3e 22 72 80 3e b3 f4 f2 bc 26 1c 48 3b
       0.2602738 0.25087076 -0.029657697 0.0030534356
000330 5b 45 c9 3b a5 1d f3 bb 37 29 17 bb 11 9e e2 bc
       0.006142301 -0.0074193054 -0.0023065337 -0.027663263
000340 ed a3 ac bb 87 0b f9 3f a1 8f c2 bc 97 eb 7e 3e
       -0.005268565 1.9456643 -0.023750128 0.24894558
000350 9f 3b 99 3c 45 dc f1 3c 6f 3b 01 3c be ae d6 bb
       0.018705187 0.029523978 0.007887705 -0.0065515926
000360 42 74 fe bd 52 0a da bc 60 c0 1e be ae 34 46 3e
       -0.12424518 -0.02661625 -0.15503073 0.19356033
000370 05 cf 71 3c 00 99 64 3c 92 c3 cb 3b 99 e1 9b 3e
       0.01475883 0.013952494 0.006218382 0.30445555
000380 66 15 d8 3f 08 c2 d5 3e b3 32 c0 3c 86 ba a9 bc
       1.688153 0.41749597 0.023461675 -0.020718824
000390 91 e9 87 bc 7f e6 62 3e 08 63 85 3e f1 d6 6a 3e
       -0.016590865 0.2215824 0.26052117 0.22933556
0003a0 8e 96 0e 40 32 6b b7 bb 30 09 fd bd 9f 1e 8f bb
       2.2279391 -0.0055974955 -0.12355268 -0.004367664
0003b0 90 a9 6d 3e 2f 2a 04 bc 4a 35 cb 3e 21 1a c8 bd
       0.23209214 -0.008066698 0.39689094 -0.09770609
0003c0 31 06 3a ba 67 a7 ac bc 9e 61 02 3c 5e 90 cd 3c
       -0.00070962595 -0.021075917 0.007957844 0.025093254
0003d0 99 8b f8 bc 56 11 95 bd f3 d2 f6 3c 59 c7 c6 bc
       -0.030340003 -0.07278697 0.030129885 -0.024264978
0003e0 50 4f b8 3e 65 96 44 bc 8f cf a3 bd 31 15 a0 3b
       0.3599801 -0.0119987475 -0.07998573 0.0048853387
0003f0 40 03 0a 3f ea e6 81 3c 78 ab fc 3d 37 63 ba 3e
       0.5391121 0.015857179 0.123373926 0.3640382

bias f4 [128]
000000 d6 a6 c7 3d 51 81 04 3e 69 f4 27 bc a9 bd 98 3d
       0.09748618 0.12939955 -0.010251143 0.0745805
000010 4c b6 33 3e 6f 36 07 3e 66 4a 61 bb 04 11 bb 3d
       0.1755001 0.13204359 -0.003437662 0.09134105
000020 23 51 b4 3d 67 03 a8 3d bb e3 03 bd a7 6d 0d 3e
       0.08804538 0.08203774 -0.032199603 0.1381136
000030 e1 05 a5 3d ef 76 95 bc 15 0c 9e 3c ff 65 9a 3d
       0.08057762 -0.018245189 0.01929287 0.075389855
000040 d0 0d db 3d 3b 41 ba 3d 17 a8 8f 3d cc 3d da 3d
       0.10695994 0.09094473 0.070144825 0.10656318
000050 b6 28 d6 3d e0 79 21 3d c9 be 11 3e 51 57 c1 3d
       0.10456984 0.03942287 0.14232935 0.094404824
000060 5a 47 a4 3d 3b a5 e1 3d cc 98 80 3b 33 59 8e bb
       0.08021422 0.11017843 0.003924465 -0.0043441295
000070 f9 bf cd 3d dd ab 05 3e ef b4 d9 3d 43 8d a9 3d
       0.100463815 0.13053842 0.106302135 0.08278897
000080 9b 56 a7 3c ec 11 5e 3d 44 48 e4 3d 39 f8 e7 3d
       0.020427039 0.05421631 0.11146596 0.113266416
000090 f6 b5 e9 3d ff ae cc 3d 04 b0 98 3d 72 4b 2b 3d
       0.114116594 0.09994315 0.07455447 0.041819997
0000a0 f7 dd 97 3d c0 1f 98 3d aa 28 16 bc 64 15 a4 3c
       0.07415383 0.07427931 -0.0091649685 0.020029731
0000b0 b9 30 5d 3d 53 86 15 3d c6 26 d6 3d 4d dd 57 bc
       0.054001544 0.036505055 0.10456614 -0.013175321
0000c0 7a 45 88 3d 04 f5 b3 3b e2 87 05 3e d9 de 4d bb
       0.066538766 0.0054918546 0.13040116 -0.0031413345
0000d0 fd a8 02 3e 78 1d ed bc 8c 7d e2 3d ad 4e dc 3d
       0.12759776 -0.028944716 0.110591024 0.10757194
0000e0 7a 6b 0c 3e 00 b0 5d 3d b8 87 f6 3c 5c 1e bb 3d
       0.13712874 0.054122925 0.030094013 0.0913665
0000f0 7f ac 20 bc c9 83 2c b9 74 03 9c 3d e1 c5 7a 3b
       -0.009806751 -0.00016452292 0.07617846 0.0038264918
000100 0c ba 21 3e cb 26 30 bc 37 3a ae 3d cb a1 bd 3d
       0.15793628 -0.010751436 0.08507197 0.09259375
000110 1a bc e4 3d 49 d1 ce 3d c1 07 4b 3c 8c 5d e0 bc
       0.1116869 0.10098512 0.012391985 -0.027388357
000120 96 03 fc 3d 24 07 ad bc b2 52 80 3d d0 2b d5 bc
       0.123053715 -0.021121569 0.06265773 -0.026021868
000130 4e d7 56 3d 79 05 32 3c 00 3d 21 3e 55 c6 c9 3d
       0.052451424 0.010865563 0.15745926 0.09852282
000140 d5 a7 f0 bb 41 54 f4 3d b7 21 39 3d 3c f2 d0 3d
       -0.007344226 0.11930133 0.04519817 0.102024525
000150 cc f8 0d 3e a9 d0 8b 3c 93 fc ee 3d 11 a2 9c 3d
       0.1386444 0.01706727 0.116692685 0.07648099
000160 90 30 a0 3c 6b cf 8f 3d 5a 90 53 3d 33 d4 e8 3d
       0.019554406 0.07021984 0.051651336 0.11368599
000170 60 bc a0 3d 43 3b e6 3d b1 8e 83 3d f6 8f cc 3b
       0.0784843 0.11241772 0.064237006 0.0062427474
000180 cf 78 0b 3c 6e dd 07 3d ff 0a 42 3d e6 98 f2 3d
       0.00851269 0.033170156 0.047373768 0.11845569
000190 45 5b a2 3d 18 f9 0e 3e 97 10 8d 39 7d c8 ec bc
       0.079275645 0.13962209 0.00026905976 -0.028904194
0001a0 45 7d ba 3d 49 d0 02 3d 68 5d 41 3c 22 fd 0c 3e
       0.091059245 0.031936917 0.011802055 0.13768438
0001b0 21 6c f4 3d c7 38 d9 bc 33 ad cc 3d 95 ae 02 bc
       0.119346865 -0.026516331 0.09993973 -0.007976194
0001c0 e6 6f 8a 3d 78 e6 26 3e 7f 20 c1 3c ee 72 bd 3d
       0.06759624 0.16298854 0.023575066 0.09250437
0001d0 7a 0e 69 3d a1 7f 44 b2 ef a0 86 3d 2b fb 8f 3c
       0.05689857 -1.1437721e-08 0.065736644 0.01757582
0001e0 1b c9 01 3e 53 a6 16 bb 94 7b e0 3c 17 34 fa 3d
       0.12674372 -0.002298732 0.027402677 0.122169666
0001f0 f3 a9 8c 3d a9 d0 87 3c cc e4 02 3e 8a b1 d4 bb
       0.06868353 0.01657899 0.12782592 -0.006490891

weight f4 [290, 128]
000000 1e 0a b6 3d 01 84 88 3d f1 85 c2 3d ca 59 3a 3e
       0.088886485 0.06665803 0.094982035 0.18198314
000010 2f 89 a6 3d 5f 86 a0 bd 0e aa d5 3c db 3c a7 3d
       0.081316344 -0.07838129 0.026082065 0.08165904
000020 49 6f 4a 3d 38 2e 2d 3e 56 e7 a1 3c 7e ac 41 3d
       0.049422536 0.16912162 0.01976363 0.047283642
000030 d0 a1 99 3d ad bd a6 bb 0f 00 eb ba 77 7b 4e 3e
       0.075015664 -0.005088529 -0.0017929095 0.20164286
000040 f4 13 8a 3d c8 46 ae 3d a3 a8 c1 3d 5c 77 bc 3d
       0.06742087 0.08509594 0.09455993 0.092024535
000050 5b d7 87 3d 98 70 c6 bb 3a 7f b7 bc cd 2c 8d 3d
       0.06632873 -0.0060559027 -0.022399534 0.06893311
000060 15 01 28 3e 4a 82 58 3d 95 b2 e0 3c 97 5c 0c bc
       0.16406663 0.05285863 0.027428905 -0.008566997
000070 31 a3 c0 3d f7 55 31 bd 57 c1 10 3e 10 ca 39 bd
       0.09406126 -0.043294873 0.14136253 -0.045358717
000080 7e f0 65 bc 3a 5c 2a 3e c2 db 8e 3d 3c 38 b8 3d
       -0.014034389 0.16636744 0.06975509 0.08995101
000090 a5 7a 95 3d 42 26 10 3e 51 e2 44 3e 74 a9 57 3e
       0.07298783 0.14077094 0.19226958 0.21060735
0000a0 86 fa 16 3e 70 37 00 3e 49 d0 7f 3c 1d b4 f4 bc
       0.14744005 0.12521148 0.015613624 -0.029871041
0000b0 59 30 f5 3d 05 7a 2c 3e fb 58 ef 3d b4 79 de 3c
       0.11972112 0.16843422 0.116868936 0.027157642
0000c0 2b c8 18 3e f2 cb 3e 3c 33 96 f5 bc d1 0a f9 bc
       0.14920108 0.011645304 -0.029978847 -0.030400665
0000d0 7a b0 1f 3e cc 75 84 3c 7c ed e0 3d 07 49 91 3d
       0.15594664 0.016169451 0.109827965 0.07094007
0000e0 8f 47 63 3d ad 8b 27 3e f6 9e 03 3e 3e f2 f4 3d
       0.055488165 0.16361876 0.12853608 0.119602665
0000f0 0d 2f 0a 3c 56 ea 02 bd 62 c9 51 3d 86 24 e2 bc
       0.008434069 -0.03196176 0.051217444 -0.027605306
000100 a8 72 45 3d 8d c7 6f 3c 56 59 2f bd f1 bf 92 3c
       0.048205048 0.014634979 -0.042809807 0.01791379
000110 4b 07 c5 3d 90 69 84 3d 39 be 33 3e 25 1f 01 3d
       0.09620532 0.06465447 0.17553033 0.031523842
000120 f8 3e 19 3e 1d 6a 35 bc 50 60 ef 3d 50 08 ab 3c
       0.14965427 -0.011072663 0.11688292 0.020877987
000130 9f a1 39 3e 78 4d fa bc 31 5f 43 bd bd 4f a0 3d
       0.1812806 -0.030554518 -0.047698203 0.07827709
000140 49 a6 3c 3b dc b0 67 3d 99 4a e0 3d fe 17 bb 3d
       0.0028785637 0.05656515 0.109517284 0.091354355
000150 06 65 c2 3d 85 c9 17 3e ab 9e ce 3d 8a e6 2f 3d
       0.09491925 0.14822967 0.10088857 0.04294447
000160 4f 89 e6 3d f7 1f 96 3d 39 52 35 bd 1d 9d 9e 3d
       0.11256658 0.073303156 -0.044267867 0.07744811
000170 fe 7f 9c 3d 61 19 89 3d 36 3a 24 3e 59 12 02 3d
       0.076416 0.06694294 0.1603783 0.03175578
000180 74 1a 8b 3c 7e 1d e7 3d 48 60 25 3e 9a 11 d0 3d
       0.016980387 0.11284922 0.1615001 0.10159607
000190 e4 23 37 3e 4b ec 2b 3e 8b 96 24 3e ec 42 c6 3b
       0.17884785 0.16789357 0.16073053 0.006050458
0001a0 11 6f 56 3d f7 a8 07 3e ff 9f f4 bc 12 77 3b bb
       0.052352015 0.13248049 -0.029861448 -0.0028604907
0001b0 52 e7 63 3d 45 6a f7 3c cb d8 83 3d bf 4b ed bc
       0.055640526 0.03020204 0.06437834 -0.028966783
0001c0 cc 7e 2c 3d 2c f3 ac 3d 14 60 3c 3e 08 cf 81 3d
       0.04211311 0.08444819 0.18396026 0.06338316
0001d0 05 c6 11 3e 88 04 40 bc ba 12 39 3e 5c b8 0a bd
       0.14235695 -0.01171983 0.1807355 -0.033867225
0001e0 11 7e 3b 3d 9c e4 eb 3c 59 a7 dc bc 64 94 3c 3d
       0.045774523 0.028795533 -0.026935266 0.046039954
0001f0 cb 00 31 3d fa 32 ca bc 35 a2 2d 3d c4 ad fc bc
       0.043213647 -0.02468251 0.04239102 -0.030844577
000200 e0 b9 83 3d d2 3a 2a 3d 24 2d 12 3e 7d 56 17 3e
       0.06431937 0.04156 0.14275032 0.14779086
000210 c9 f5 69 3e 9d 29 ab bd 70 58 cb bc b8 11 ab 3d
       0.22847666 -0.083575465 -0.024822444 0.08352989
000220 cf 52 80 3d ab e8 30 3e 65 c5 b5 3b 50 c0 b6 3d
       0.062657945 0.17276256 0.005547213 0.089233994
000230 e8 9b 4a 3d 28 ec 70 3c 57 08 93 3c 1d 69 26 3e
       0.04946509 0.014704742 0.017948313 0.16251035
000240 86 ff 8e 3d c7 94 a6 3d cf 3f 81 3d c3 c4 a1 3d
       0.06982331 0.08133846 0.06310999 0.078988574
000250 82 c7 b6 3d 33 4d 00 3d 30 d5 c4 bd df 54 9b 3d
       0.08924772 0.031323623 -0.09610975 0.07584547
000260 87 54 27 3e db 2e 94 3d 90 81 b6 bc 4f 6e ab 3c
       0.16340838 0.072354995 -0.022278577 0.020926623
000270 06 49 92 3d 60 c2 b4 bd 71 d8 0f 3e 93 91 6a bd
       0.07142834 -0.088261366 0.1404741 -0.057267737
000280 01 67 50 bb ac 49 f8 3d 9a 92 84 3d e2 9e 12 3d
       -0.0031799676 0.12123427 0.064732745 0.035796054
000290 c7 60 55 3d d2 ae 30 3e 30 94 23 3e bc 2d 14 3e
       0.052094247 0.17254189 0.15974498 0.14470571
0002a0 38 16 0b 3e 1f b2 05 3e d8 a3 f0 39 c2 08 da bc
       0.13582695 0.13056229 0.0004589844 -0.026615504
0002b0 c0 d7 02 3e 3d e0 3a 3e b6 82 2d 3e 0e bc d0 bc
       0.12777615 0.18249603 0.16944394 -0.025480296
0002c0 46 25 15 3e 35 a1 67 3c f0 4a d2 bd 34 53 d7 bb
       0.14565 0.014137556 -0.102681994 -0.006571198
0002d0 52 74 1b 3e c2 f9 3c 3c 02 e7 bf 3d 29 e2 b8 3d
       0.15181091 0.011534156 0.09370233 0.090275116
0002e0 5a 60 70 3d a3 3a f7 3d 1d 4a 24 3e ba 3f 1e 3e
       0.058685638 0.12071731 0.16043897 0.15453997
0002f0 29 17 10 ba 5b 06 65 3c 4b 11 89 3d 2d 10 02 bd
       -0.0005496615 0.013978566 0.066927515 -0.031753708
000300 14 ec 8c 3d 00 95 34 bb d9 e7 b1 bd 08 21 6d 3d
       0.06880966 -0.0027554631 -0.086867996 0.05789283
000310 54 80 8c 3d 08 82 21 3d 0d 95 22 3e 25 fe f4 bc
       0.06860414 0.039430648 0.15877171 -0.029906342
000320 1e 62 2c 3e 68 f6 4a bc 3a 13 3e 3e da a9 92 ba
       0.16834304 -0.012387849 0.18562022 -0.0011189536
000330 aa a1 ec 3d 52 eb 8d 3c a5 1a 48 bd 08 14 07 3d
       0.115542725 0.017324124 -0.048853535 0.032978088
000340 17 01 85 bc 05 94 ab 3d f7 00 07 3e 75 c2 8a 3d
       -0.016235871 0.08377842 0.13183962 0.06775371
000350 a9 15 3e 3d 27 c5 00 3e 8d c6 57 3d 48 be 89 3d
       0.046407375 0.12575208 0.052679587 0.067257464
000360 2b 32 1e 3e 7e 67 b7 3d 7a 53 4b bd 87 e9 7d 3d
       0.15448825 0.089552864 -0.049640156 0.061990287
000370 f4 f7 85 3d db a9 65 3d 3b 62 00 3e 6e 47 fd 3c
       0.06541434 0.05607019 0.12537472 0.03091785
000380 67 45 98 3c c6 5b 27 3e 07 51 36 3e 25 58 b2 3d
       0.018587781 0.16343603 0.17804347 0.087082185
000390 2d cf 13 3d 79 ff 0b 3e d1 e9 37 3e e6 d9 b9 bc
       0.03608625 0.13671674 0.17960288 -0.02268691
0003a0 fd d1 b9 3d 68 f6 31 3e 79 6e 4d bb 65 2b 93 bd
       0.09073255 0.17379153 -0.0031346364 -0.07186011
0003b0 78 76 07 3d 41 98 e2 bc 00 2c 4e 3d 63 fb 96 bc
       0.033071965 -0.027660491 0.05033493 -0.018430417
0003c0 21 d0 83 3d 0f 94 c0 3d cf 0e 3a 3e a3 0b b7 3d
       0.06436182 0.0940324 0.18169712 0.089377664
0003d0 1d 54 09 3e 33 75 4a bc d4 67 2b 3e 1a 96 83 bc
       0.13410993 -0.012357044 0.16738826 -0.016062785
0003e0 2d bd 0b 3d ab 5b 8b 3c 9b 50 ca 3c 54 f7 c4 3d
       0.03411596 0.017011484 0.024696639 0.096174866
0003f0 a7 99 c0 3d b7 89 80 bc b3 39 9e 3d 14 ec c9 bc
       0.09404307 -0.015690668 0.07725849 -0.024648704

bias f4 [290]
000000 1e 4a 76 bc c6 e9 eb 3c af fb e6 3c a7 c3 f1 ba
       -0.015032319 0.028797995 0.028196184 -0.001844515
000010 a4 0d 1d 3d b3 da 49 3b 3d 58 3d bc 0d a2 54 3c
       0.038343087 0.003080052 -0.011556682 0.012978089
000020 fe 92 21 3c 86 06 12 3d 0a 42 b9 bc c9 4d 63 3d
       0.009861706 0.035650752 -0.022614498 0.055494104
000030 69 e7 e4 3b a4 16 4a 3d 97 07 dc 3c 3b 78 b2 3b
       0.006985594 0.049337998 0.026859088 0.0054464615
000040 db f8 ca 3c db a9 7e 3c 48 78 a3 3c 39 21 6e 3d
       0.024776867 0.015543426 0.019954816 0.058137152
000050 4d ca 31 3d 7d 51 92 3c 31 98 0b ba 78 86 2f 3d
       0.04340582 0.017861122 -0.00053251075 0.04285285
000060 65 ae 9a 3b cc 3d ee 3c 79 77 ed 3c 65 92 2c 3d
       0.0047204965 0.029082201 0.028987633 0.0421318
000070 f6 01 89 3c 98 e4 ff bc cc a7 26 3d 5f b0 b7 bc
       0.016724568 -0.031236932 0.040687367 -0.022422967
000080 70 39 ce 3c 06 02 ba 3c ee 83 35 3d b4 e8 6b bc
       0.025173873 0.022706043 0.04431527 -0.0143987425
000090 5a 9b d6 bc 52 74 1e 3c bb 59 86 3d f2 00 72 3d
       -0.026197124 0.009671288 0.065600835 0.059082933
0000a0 77 b6 0b 3d 70 44 11 3d 50 27 bd 3c c7 37 ba 3a
       0.03410956 0.035465658 0.023090035 0.0014207297
0000b0 1f 07 2b 3d e8 72 5b 3d 44 11 e8 3c 5e 9d 70 3d
       0.041754838 0.05357638 0.028328545 0.058743827
0000c0 e2 47 98 3c 6d cf 7e 3d 11 83 15 3d 29 61 af 3d
       0.018588964 0.062209535 0.036501948 0.08563454
0000d0 ff bb c7 3c 78 01 95 3b a9 35 8e bb 3b 27 25 3b
       0.024381636 0.004547294 -0.004339893 0.0025200385
0000e0 bc 7e 86 3d 43 b8 97 3d 86 d3 1f bc 97 9f 4f bc
       0.065671414 0.07408192 -0.009755021 -0.0126723265
0000f0 82 5e ac bc e3 5d 08 bc 1c 84 09 3d e4 f7 4b 3d
       -0.021041159 -0.008323166 0.033573255 0.049796954
000100 ec 10 53 3d 66 62 1c 3d 2d 45 f6 bb 8b 20 87 3c
       0.05152981 0.038179778 -0.0075155706 0.01649501
000110 8a f8 d8 3c 37 e9 61 3d e8 39 82 3d 97 f3 0e 3d
       0.0264857 0.05515405 0.06358701 0.034900274
000120 ca bf c5 3c 93 c0 cd bc 53 5e 0c 3d a2 28 ff 3c
       0.024139304 -0.02511624 0.034269642 0.031147305
000130 79 3c 87 3c cc 83 48 bd cd 9a f6 bb e9 99 29 bc
       0.016508328 -0.048953816 -0.007525778 -0.010351636
000140 9c e0 cc 3c cf a6 07 3d a2 2c 91 3d de ab f9 bb
       0.025009446 0.033118065 0.07088591 -0.007619365
000150 09 56 35 3a 83 d5 1d 3d 0d b0 5c 3c 6c 23 d3 3a
       0.0006917422 0.0385337 0.013469708 0.0016108579
000160 5f b8 16 3d c1 31 9c 3c 64 c0 49 3d a7 20 aa 3c
       0.036796924 0.019066693 0.049255744 0.020767523
000170 5e 78 d3 3b e8 f4 d9 bc 58 24 3a 3d 55 cd 3f bc
       0.006453558 -0.026606038 0.045444816 -0.01170667
000180 8d 0e 20 bc 42 95 38 b9 3f 1e ee 3c c5 dc f1 3c
       -0.009769094 -0.0001760321 0.029067157 0.029524216
000190 0e 69 cf bb d2 e3 90 3b b4 e8 8e 3d 01 64 a0 bc
       -0.006329662 0.0044216895 0.06977978 -0.019578936
0001a0 6a c3 59 3d b4 aa a8 bc f5 58 c2 ba 64 9f bc 3c
       0.053164877 -0.02058921 -0.0014827537 0.023025222
0001b0 c8 24 74 3b 1e 9b 23 3d 6b 33 dc ba e5 36 46 bd
       0.0037253369 0.039942853 -0.0016799992 -0.048392195
0001c0 d0 59 d5 bb 6e 70 f0 bc 4c fe 99 bc d8 76 bd 3c
       -0.0065109506 -0.029350486 -0.018798016 0.023127958
0001d0 1c a8 33 3c 45 76 d5 3c 2f 60 1e 3d 55 88 e2 3c
       0.010965373 0.026057372 0.038665947 0.027652899
0001e0 63 23 5f bb f2 57 bc bb 64 65 61 3d bc 18 e7 bc
       -0.0034048192 -0.0057477886 0.055028334 -0.028210036
0001f0 db 8a bc bc 64 a8 42 bc e7 0c 9a 3b 3d 48 a9 38
       -0.02301543 -0.011880968 0.004701245 8.0720034e-05
000200 ba 77 0f 3a f2 db 98 3c 91 eb ac 3c 04 fd 10 bb
       0.0005472858 0.018659566 0.02110842 -0.0022123465
000210 b5 9f 4d 3d 9e ee 31 3b de e3 bb ba 85 58 0d bc
       0.050201137 0.0027150284 -0.0014334877 -0.008627062
000220 e0 16 cf bc 87 44 05 bd ff 64 13 bd 4d 92 a2 3c
       -0.025279462 -0.032536056 -0.03598499 0.019845152
000230 48 65 a1 bc 3a 99 51 3d 93 15 56 3d 45 db 25 bc
       -0.019701615 0.05117152 0.05226667 -0.010123079
000240 fc 6c 9d 3c 28 0e 0d 3d 05 15 18 3d f4 60 74 3c
       0.019217007 0.03443733 0.03712942 0.014915694
000250 4b 19 88 bc 7e ad 81 3d 6e ff 27 3c cd 8d 46 3d
       -0.016613623 0.06331919 0.01025377 0.048475076
000260 bb e4 ad bb 28 6d 4c bd 6e b7 4e bc 30 06 95 3c
       -0.005306808 -0.049908787 -0.012616975 0.018191427
000270 03 80 b5 3c 5f 42 05 3d 19 60 94 bc ba 4e 4e 3d
       0.022155767 0.032534 -0.01811223 0.05036805
000280 2f 53 b8 3c f3 90 3a bc 28 64 35 3d e4 8c 64 b9
       0.022500603 -0.011387098 0.04428497 -0.0002179626
000290 a5 e3 bf 3a 32 67 23 3d b6 a5 02 3d b5 ef 38 3d
       0.0014639987 0.039893337 0.031896316 0.045150477
0002a0 56 2d 03 bc 82 89 bd 3c 63 23 64 3c 13 e9 25 3d
       -0.008006414 0.023136858 0.0139244525 0.04050548
0002b0 a4 bf 83 3d 95 b2 b9 3c 7c 4b 3a 3d 2d 64 3a 3d
       0.06433037 0.022668162 0.045482144 0.04550569
0002c0 28 b7 9b 3c ae d6 46 bc d7 72 08 bd 18 03 88 3c
       0.019008234 -0.012136145 -0.033312645 0.016603038
0002d0 80 74 a3 bc 48 23 9a 3c 1e c2 33 bc 2d e6 2b 3c
       -0.019953012 0.018815652 -0.010971574 0.01049189
0002e0 d3 e9 f3 3b 17 8b 05 3d f5 c8 24 bd 9a 19 d8 bc
       0.0074436455 0.03260335 -0.04023071 -0.026379395
0002f0 f8 55 e1 3b 0d fa 4a 3d 1e 64 2b bc ce cc 1e bb
       0.0068767034 0.049554873 -0.0104608815 -0.002423096
000300 d9 32 c9 3c c2 47 21 3d b3 58 22 bc 3f 54 bf 3c
       0.024560379 0.039375074 -0.009908843 0.023355601
000310 85 bc 23 3b b3 25 85 3c c8 51 50 3c 23 ce b8 bc
       0.0024984193 0.016253328 0.012714811 -0.022559231
000320 c0 ed e8 3c 75 62 31 bd 65 1c 89 3c c4 48 8a bc
       0.02843368 -0.043306787 0.016737172 -0.0168804
000330 91 bb 88 bc c3 e0 3b 3d c3 27 9f bc 91 2c e7 3c
       -0.016691001 0.045868646 -0.01942814 0.028219493
000340 58 51 f8 3c 8b 30 0a 3d 62 ec 1a 3d da dc 26 bd
       0.030312225 0.0337377 0.03782309 -0.040737964
000350 49 cd 0c 3d 57 45 b5 3b c5 e4 2d 3d 91 58 59 3d
       0.034375463 0.0055319476 0.0424545 0.05306298
000360 f5 4b 49 3c 6d c4 5a 3d 79 b9 a2 bc 0d 45 c9 3c
       0.012286176 0.053409982 -0.01986383 0.024569059
000370 ce 55 6a 3c 68 36 e2 3c 25 72 0b 3d 3f 28 13 3d
       0.014302684 0.027613834 0.034044404 0.035927054
000380 7a 77 60 3d bd cd a9 3c a2 58 3d 3d 60 59 a7 bc
       0.05480144 0.020727986 0.046227105 -0.02042836
000390 2d ad 5d 3d 81 d9 9b 3b 75 09 20 bc 36 44 4e bb
       0.05412023 0.004756153 -0.00976788 -0.0031473762
0003a0 b3 73 1f 3c 27 91 79 3a 65 ca 04 3d 96 11 42 3c
       0.009732175 0.00095202256 0.03241958 0.011845013
0003b0 1b af e6 bc 35 3e 1e 3d 89 50 be 3c 61 14 0a 3d
       -0.028159669 0.038633544 0.023231762 0.03371084
0003c0 5b be 87 bc 89 3f 9e 3b 9d f8 b7 3c fa 8d 17 3d
       -0.01657026 0.0048293513 0.022457415 0.037000634
0003d0 de 8b 80 3c 6f b4 d7 3c 44 e2 7f bc 4b 4b 7c 3d
       0.015691694 0.026331155 -0.015617911 0.061595242
0003e0 03 3d 0a 3d 69 d3 0d 3d be b0 45 bc ec c3 60 3d
       0.03374959 0.034625445 -0.012066064 0.054874346
0003f0 eb 78 ac 3b e3 af 81 3c af b2 fd bc e9 4a b8 3c
       0.005263438 0.01583094 -0.030968992 0.022496657
