ai4realnet_orchestrators/power_grid/framework/trained_models/RLPerturbAgent/trained_rlpa_target_net_0.pth (torch, 459452 bytes, 6 tensors)

weight f4 [128, 467]
0	0x3cc18dc5	0.023627171
1	0x3d6a2edb	0.05717359
2	0xbdbcf3fe	-0.09226225
3	0x3ec8dd79	0.3923147
4	0x3c1b37e1	0.009473772
5	0xbeb5a8ee	-0.35480446
6	0xbc0474a4	-0.00808445
7	0xbe1638be	-0.14670083
8	0xbdc4a275	-0.09601299
9	0xbf4eeddb	-0.8083169
10	0xbf757c88	-0.95893145
11	0x3d2eba88	0.04265836
12	0xbecb24e0	-0.3967657
13	0xbe4e6f60	-0.20159674
14	0xbf094ed1	-0.5363589
15	0x3f16eb0b	0.589524
16	0x3e61afef	0.2203977
17	0xbf42c0f7	-0.7607569
18	0xbb0c9cc0	-0.0021455735
19	0x3c372a30	0.011179492
20	0x3c9035bb	0.017603746
21	0x3c2493f6	0.010045042
22	0x3cc1e0f1	0.02366683
23	0xbb52c973	-0.003216353
24	0xbe3451de	-0.17609355
25	0xbe41b4d6	-0.1891664
26	0x3c47987a	0.012182349
27	0xbddcba5e	-0.10777734
28	0xbe6a1adb	-0.22861807
29	0x3db458cd	0.08806
30	0x3d576d96	0.052594744
31	0xbb778d45	-0.0037773412
32	0xbdc4dd75	-0.09612552
33	0x3dda3a4c	0.106556505
34	0xbd17e2d8	-0.03708157
35	0xbe0c9113	-0.13727216
36	0xbe45026b	-0.19239204
37	0xbdd95500	-0.106119156
38	0xbdfd8ea4	-0.12380722
39	0xbe266c90	-0.16252351
40	0xbe897cb2	-0.26852947
41	0xba3796c9	-0.0007003365
42	0xbcd70f97	-0.026252551
43	0xbde5e724	-0.11225727
44	0x3d8bffec	0.068359226
45	0xbe14ab02	-0.1451836
46	0x3c57902d	0.013156933
47	0x3c20a7f6	0.00980567
48	0x3d5d2a8a	0.053995647
49	0x3d01dedf	0.031706687
50	0x3ce5cb0b	0.02805092
51	0x3c995cc9	0.018721001
52	0x3d1d2a8e	0.03837066
53	0x3c6a1c0f	0.014288916
54	0x3ce46734	0.027881242
55	0x3d191a59	0.037378643
56	0x3d2afbf4	0.041744187
57	0x3d06cfab	0.03291289
58	0x3d9aa80c	0.07551584
59	0xbdce27d4	-0.1006619
60	0x3d9a1164	0.07522848
61	0x3eb68b2a	0.3565305
62	0x3e015609	0.12630476
63	0x3e860c5f	0.26181313
64	0x3f1cf529	0.61311585
65	0x3c9626ae	0.01832899
66	0x3ebfc65c	0.37456024
67	0xbf8d5fb8	-1.1044836
68	0xbf0a9fee	-0.54150283
69	0xbf59f165	-0.85133964
70	0x3ea2a6cf	0.3176789
71	0x3f495ab4	0.78654027
72	0xb91015b6	-0.00013740998
73	0xbed863c2	-0.4226361
74	0x3f8e85af	1.1134547
75	0x3f73abee	0.9518422
76	0x3df760ce	0.12079011
77	0x3eec13ff	0.46109006
78	0xbf78947c	-0.9710157
79	0x3eb681ba	0.3564585
80	0x3e7cfd30	0.24705958
81	0xbf6c2799	-0.9224792
82	0xbda9ebc8	-0.08296925
83	0x3ee90769	0.45513466
84	0xbf313ee0	-0.69236565
85	0xbeb80af5	-0.3594586
86	0xbeb18456	-0.34671277
87	0x3f59a647	0.85019344
88	0x3f4e6313	0.80619925
89	0x3f85ce43	1.0453571
90	0xbf8a4098	-1.0800962
91	0xbf7a956c	-0.9788425
92	0x3e0408db	0.12894003
93	0xbee9f18d	-0.456921
94	0xbfd06a65	-1.6282469
95	0xbe61d0a2	-0.22052243
96	0xbecd67b9	-0.40118197
97	0xbc077b7f	-0.00826919
98	0xbc2bb492	-0.010480063
99	0x3bc6a79c	0.006062461
100	0x3ce68bde	0.028142866
101	0x3ae5fd79	0.0017546854
102	0x3b305942	0.002690867
103	0x3d8e7012	0.069549695
104	0x3be3ef91	0.006956049
105	0x3c0c9891	0.008581297
106	0x3d0f188b	0.034935515
107	0x3cfc08cf	0.030765919
108	0x3cf0a5d3	0.029375946
109	0x3ca9f89f	0.020748435
110	0x3dcfd0be	0.10147236
111	0x3ce3640a	0.027757663
112	0xbc79f45e	-0.015256016
113	0x3c94550a	0.018106956
114	0xbb5e2294	-0.0033895122
115	0x3a6fec4b	0.0009152337
116	0xbb599de9	-0.0033205694
117	0x3d0937c9	0.033500466
118	0xbe06dc60	-0.13170004
119	0x3d27cc34	0.040966228
120	0x3ba3f7e6	0.005003917
121	0xbe01e644	-0.12685496
122	0xbdef3a65	-0.1168106
123	0xbeca72c2	-0.39540678
124	0x3d8c74d1	0.068582185
125	0xbe1856f9	-0.14876927
126	0x3d0ee877	0.034889665
127	0xbea55d7e	-0.3229789
128	0xbdf9d5bb	-0.12198969
129	0xbc899cdf	-0.016798435
130	0xbe243d61	-0.16039039
131	0xbd5fb009	-0.05461124
132	0x3bdc68c9	0.0067263586
133	0xbe14a560	-0.1451621
134	0x3f1844a2	0.59479725
135	0x3e6dd2ba	0.23224917
136	0xbd89084e	-0.06691037
137	0xbd1756b5	-0.036947925
138	0xbdb3ba3f	-0.08775758
139	0x3dbacda4	0.09121254
140	0xbd9a4b72	-0.07533921
141	0xbec65316	-0.38735265
142	0xbe197784	-0.14986998
143	0xbe86769c	-0.26262367
144	0xbf1b9903	-0.6078035
145	0xbcb2dab5	-0.021832803
146	0xbebbd47a	-0.36685544
147	0x3f8dfee2	1.1093409
148	0x3f0ef891	0.5584803
149	0x3f509cb9	0.8148914
150	0xbe9e88ea	-0.30963832
151	0xbf4961d6	-0.7866491
152	0xbaf16782	-0.0018417689
153	0x3ed9b42d	0.42520276
154	0xbf8efa17	-1.1170071
155	0xbf730999	-0.9493652
156	0xbdfeebf5	-0.12447349
157	0xbf00c8a0	-0.5030613
158	0x3f7b1beb	0.98089474
159	0xbecffc06	-0.40621966
160	0xbe8168e2	-0.25275332
161	0x3f4c418c	0.79787517
162	0x3c7312c9	0.014836022
163	0xbeea2f17	-0.45739052
164	0x3f37885a	0.7169243
165	0x3ec57c5e	0.38571447
166	0x3eb650ba	0.35608464
167	0xbf5d4872	-0.8643867
168	0xbf5b5a71	-0.8568488
169	0xbf842f18	-1.0326872
170	0x3f8e9cf3	1.1141647
171	0x3f835659	1.0260726
172	0xbdb46a4b	-0.08809336
173	0x3ebe9670	0.3722415
174	0x3fc0d931	1.5066282
175	0x3e64201f	0.22277878
176	0x3ebdd8fb	0.37079605
177	0x3c60f90a	0.013731251
178	0x3d892e28	0.06698257
179	0x3b6d4efa	0.0036210404
180	0x3c8e048b	0.01733615
181	0x3d02b9a9	0.03191534
182	0x3cca0028	0.024658278
183	0x3d8524e4	0.06501177
184	0x3c792ef5	0.015208949
185	0x3cb9e51d	0.022692258
186	0x3ca67e5f	0.02032393
187	0x3cac22ed	0.021012748
188	0x3d24d2da	0.040240146
189	0x3d093f4b	0.033507627
190	0x3dae1b29	0.08501274
191	0x3cbabaf6	0.022794228
192	0x3c014446	0.007889813
193	0x3d28c4cd	0.04120331
194	0x3d3e5243	0.04646517
195	0x3cde38ea	0.027126748
196	0x3c95d06a	0.018287856
197	0x3da2934e	0.079382524
198	0xbe19ce02	-0.15019992
199	0x3dd3a985	0.10335068
200	0xbcef83c7	-0.029237641
201	0xbe5c9c57	-0.21544014
202	0xbdf22090	-0.11822617
203	0xbecd6c37	-0.40121624
204	0x3d3d5f5b	0.046233516
205	0xbe20079a	-0.156279
206	0x3d83c4d4	0.06434026
207	0xbeae9c91	-0.34103826
208	0xbe08d1f0	-0.13361335
209	0xbd1ac5ef	-0.03778642
210	0xbe39e9af	-0.1815555
211	0xbd32f3f2	-0.043689676
212	0x3c8f637c	0.017503493
213	0xbe27de95	-0.16393502
214	0x3f4a0adc	0.7892282
215	0x3e80c912	0.25153404
216	0xbd6a0a8f	-0.057138976
217	0x3d1c96f8	0.038229913
218	0xbdb48afc	-0.08815572
219	0x3d54c038	0.051941127
220	0x3c1f91a0	0.00973931
221	0xbe027ff2	-0.1274412
222	0xbddda67b	-0.10822769
223	0xbe9edecc	-0.31029356
224	0x3db7e8da	0.0897996
225	0xbdc62144	-0.09674314
226	0x3d9ff7f1	0.07810963
227	0xbe8d305f	-0.27575967
228	0xbda67c7b	-0.081292115
229	0x3c47a12c	0.012184422
230	0xbe30550c	-0.17219943
231	0xbc11963c	-0.008885916
232	0x3b44a520	0.0030005649
233	0xbe1eca5f	-0.15506886
234	0x3f0ff4e9	0.5623308
235	0x3e6e8388	0.23292363
236	0xbd7012a4	-0.058611527
237	0x3cf87020	0.030326903
238	0x3cfbcbb0	0.030736774
239	0x3c0a3e4a	0.008437702
240	0x3c8522d8	0.016251966
241	0x3d0f6009	0.035003696
242	0x3ba8fefc	0.0051573496
243	0x3d08674e	0.033301644
244	0x3cf4644c	0.029832982
245	0x3d127e5f	0.035765048
246	0x3c1cb138	0.009563737
247	0x3cc6b3a9	0.02425559
248	0x3c07b3d3	0.0082826195
249	0x3c0eba65	0.008711432
250	0x3de529a8	0.11189586
251	0x3cf13b0a	0.029447097
252	0x3cb5041d	0.022096688
253	0x3c56dc1c	0.013114002
254	0x3cdad95a	0.02671497
255	0x3c30ac05	0.0107832

bias f4 [128]
0	0x3d0e8675	0.034796197
1	0x3b36fadb	0.0027920518
2	0x3b1d5cf5	0.0024011706
3	0x3d113824	0.03545393
4	0x3c938441	0.0180074
5	0x3e1baf92	0.15203694
6	0xbb2c1746	-0.002625899
7	0x3b27d413	0.0025608584
8	0x3dba86fc	0.091077775
9	0x3d8c8733	0.06861725
10	0x3bae22ba	0.0053141983
11	0xbc0d78be	-0.008634744
12	0x3e0cf94d	0.13766976
13	0x3d867a89	0.065663405
14	0x3d1908df	0.037361976
15	0x3c7a203a	0.0152664725
16	0x3d212dd1	0.039350335
17	0x3c835c25	0.016035149
18	0x3c1f8725	0.009736811
19	0xbc1de2b5	-0.009636571
20	0x3d33ed2b	0.043927353
21	0x3d97ba40	0.07408571
22	0x3ba92e92	0.0051630223
23	0xbc1fe73f	-0.009759723
24	0x3b58b95c	0.0033069467
25	0xba52b202	-0.00080373895
26	0x3dc61dbc	0.0967364
27	0x3da11bf7	0.07866662
28	0x3d6c7485	0.05772831
29	0xbc408104	-0.01174951
30	0x3d1e9cc7	0.038723733
31	0x3d008d28	0.031384617
32	0x3bdc8555	0.0067297616
33	0x3bd92e50	0.0066278353
34	0x3df79ae8	0.12090093
35	0x3d1e76b6	0.03868743
36	0xbc93178a	-0.01795556
37	0xbc3e677e	-0.011621354
38	0x3cb806dc	0.022464208
39	0x3bf6f623	0.007536666
40	0xbb0f7a3a	-0.002189292
41	0x3b21b875	0.0024676595
42	0x3d116675	0.0354981
43	0x3c07eb62	0.008295866
44	0x3c50c0a2	0.01274124
45	0xbc57505e	-0.01314172
46	0x3e14875a	0.14504758
47	0x3c29f695	0.010373731
48	0xbc3c7a05	-0.011503701
49	0xbb186db7	-0.0023258755
50	0x3c387fbf	0.011260926
51	0x3c5bcabb	0.013415034
52	0x3d0d6182	0.03451682
53	0x3cac6503	0.02104426
54	0xbc5c1df3	-0.013434875
55	0x3c2644de	0.010148255
56	0x3bf8bb34	0.0075906757
57	0x3ba1c380	0.0049366355
58	0x3d517dc8	0.051145345
59	0x3e020d97	0.12700497
60	0x3db5a47d	0.08869264
61	0x3dec8888	0.11549479
62	0xbc0c0817	-0.008546851
63	0x3d0e7e63	0.0347885
64	0x3c7ad7ba	0.015310222
65	0xbabcc1b6	-0.0014400992
66	0xbc659a7e	-0.014013885
67	0x3c6feb6a	0.014643529
68	0x3be87340	0.007093817
69	0x3c827a4b	0.015927454
70	0x3c3943b2	0.011307644
71	0x3cc9ce95	0.024634639
72	0x3d10e930	0.035378635
73	0x3e080bc6	0.13285741
74	0x3b8e8dda	0.004350406
75	0x3d242116	0.040070616
76	0xba457a76	-0.0007533202
77	0x3c2ea3a6	0.010659134
78	0x3c0bcd0c	0.008532774
79	0xbb27bf04	-0.0025596032
80	0xbc515724	-0.012777124
81	0x3d93a39f	0.072089426
82	0xba15381d	-0.00056922605
83	0x3de22e72	0.11044015
84	0xbc306b3b	-0.010767753
85	0x3b9c92b1	0.004778229
86	0xba7ef05e	-0.00097251486
87	0x3c26e7fc	0.010187145
88	0x3ca90891	0.020633968
89	0x3c3577e3	0.0110759465
90	0x3cd3fe23	0.025878018
91	0x3e1032ac	0.1408183
92	0xbba57c43	-0.0050502135
93	0x3b76c72b	0.0037655334
94	0x3c109803	0.008825305
95	0x3dcebcfa	0.10094638
96	0x3db1c803	0.08680727
97	0x3ce7b5bc	0.0282849
98	0x371c000d	9.298336e-06
99	0x3b812c88	0.003942076
100	0x3c3ad633	0.011403608
101	0x3e21942c	0.1577918
102	0x3e025495	0.12727578
103	0x3e32b7ab	0.17452876
104	0x3dbf3d5d	0.09337876
105	0x3c471c25	0.012152706
106	0x3bf3ed39	0.0074440506
107	0xbc56ccd6	-0.01311036
108	0x3e20e6c5	0.15713032
109	0x3c6bd94a	0.0143950675
110	0x3d51d5c9	0.051229272
111	0x3c6a2ac4	0.014292423
112	0xbc88f007	-0.016716016
113	0xbb84f672	-0.004057699
114	0x3c347c27	0.011015928
115	0xbc9218f9	-0.017834174
116	0x3bc9a944	0.0061542112
117	0x3d1303a7	0.035892155
118	0x3c1b7101	0.009487391
119	0xbb9894e5	-0.0046564215
120	0x3dd0cc11	0.101951726
121	0xbc01e7f1	-0.007928834
122	0x3d017069	0.031601343
123	0x3bb4be3b	0.0055158413
124	0x3cdb2f42	0.026755933
125	0x3c644d1d	0.013934401
126	0x3cd09fac	0.025466762
127	0x3dc114e6	0.09427814

weight f4 [128, 128]
0	0xbdb9d639	-0.09074063
1	0x3c7c9d54	0.015418369
2	0x3c5eaf2e	0.013591571
3	0xbe12eb1e	-0.14347503
4	0xbdff6c61	-0.124718435
5	0x3e696a43	0.22794442
6	0xbc943d73	-0.018095708
7	0x3c8d50b7	0.017250402
8	0x3fd24aec	1.6429114
9	0x3fe27594	1.7692132
10	0x3cefbb42	0.029264096
11	0x3b006177	0.0019589344
12	0x3e4ecc95	0.2019523
13	0x3e8e7085	0.2782022
14	0x3f092ff7	0.53588814
15	0x3ebd844d	0.37015
16	0x3cc41af4	0.023938634
17	0xbd015cad	-0.031582523
18	0x39d714e6	0.00041023566
19	0xbbc50dbd	-0.0060136006
20	0x3f04d571	0.51888186
21	0x3ee26baa	0.44222766
22	0x3c2015fb	0.009770866
23	0xbcf2e18a	-0.029648561
24	0xbc88a255	-0.016678968
25	0x3bb1f427	0.0054307166
26	0x3e9f25e3	0.31083593
27	0x40014846	2.0200362
28	0x3f341cdf	0.70356554
29	0x3c66ae46	0.014079636
30	0x3ee528a3	0.44757566
31	0xbe267a2a	-0.1625754
32	0x3b53d938	0.0032325517
33	0x3b9bac39	0.004750755
34	0x3e88c58c	0.26713216
35	0xbd6f7b83	-0.0584674
36	0xbc571492	-0.013127463
37	0x3ce08b15	0.02741007
38	0xbe05702a	-0.13031068
39	0xbda0b0a6	-0.07846193
40	0x3cf8743f	0.030328868
41	0x3eed7ff2	0.46386677
42	0x3f1a97c7	0.60387844
43	0x3c25bb22	0.010115417
44	0x3b2889fa	0.0025717006
45	0xba137721	-0.00056253566
46	0x3e65e735	0.2245148
47	0x3ed301b2	0.4121223
48	0xbda25f8a	-0.07928379
49	0x3cad0608	0.02112104
50	0x3c826992	0.01591948
51	0xbc446577	-0.011987082
52	0xbe0b0115	-0.13574632
53	0xbd27965c	-0.04091488
54	0xbc7f8ec6	-0.015598005
55	0xbc149133	-0.009067821
56	0xbe76a777	-0.2408732
57	0x3c40b777	0.011762491
58	0x3f418059	0.7558647
59	0x3e71139b	0.23542635
60	0x3ea804e3	0.32816228
61	0x3e8d0f7a	0.2755087
62	0x399191a8	0.00027765078
63	0x3dbd9e20	0.092586756
64	0x3b94da2b	0.004542609
65	0x3c0f7332	0.008755492
66	0xbc858e2d	-0.016303146
67	0xbe323215	-0.17401917
68	0xbe1d7990	-0.15378404
69	0x3c5d8d73	0.013522494
70	0x3c4a2ce2	0.012339802
71	0x3ebcc254	0.3686701
72	0x3e7afa71	0.24509598
73	0x3e772af3	0.24137478
74	0xbcd7cddc	-0.026343279
75	0xbd10630e	-0.035250716
76	0x3b1d2d93	0.0023983463
77	0xbbc405ff	-0.00598216
78	0xbc9ef6dc	-0.019404821
79	0x3bafe902	0.005368353
80	0x3cf599ab	0.029980501
81	0x3ff10ecc	1.8832641
82	0x3cd1ea6e	0.02562448
83	0x3e8301c9	0.255873
84	0x3c898b64	0.0167901
85	0x3cdc5a62	0.026898567
86	0xbcb559ce	-0.022137549
87	0x3c81b183	0.015831714
88	0xbe059ec4	-0.13048846
89	0xbced6ac2	-0.02898157
90	0xbe42b4be	-0.1901426
91	0x3e6b972f	0.2300689
92	0xbbda0a76	-0.006654079
93	0x3b548f9a	0.0032434226
94	0x3a088750	0.00052081514
95	0x3e89bec4	0.26903355
96	0x3fe3ef1d	1.7807347
97	0x3ed979be	0.42475694
98	0x3b351ca3	0.0027635477
99	0x3ca24b41	0.019811274
100	0x3cfbb958	0.030728027
101	0x3e489cf3	0.19591121
102	0x3e6c994c	0.23105353
103	0x3e4b8fd0	0.19879079
104	0x40101c62	2.2517323
105	0xbc4fab2f	-0.012675091
106	0xbdbb4413	-0.091438435
107	0x3c201559	0.009770715
108	0x3e70d54e	0.2351887
109	0xbcc35ea9	-0.023848848
110	0x3ed853d2	0.4225145
111	0xbd5505ec	-0.0520076
112	0xbb9fb7ba	-0.004874197
113	0xbc134003	-0.00898743
114	0xbcc9294e	-0.024555828
115	0xbd01cf31	-0.031691734
116	0x3cb85ee6	0.022506189
117	0xbe029e5e	-0.12755725
118	0x3d009982	0.031396396
119	0x3c911deb	0.017714461
120	0x3eab315a	0.3343609
121	0xbca4f04b	-0.020134112
122	0xbdbb7445	-0.09153036
123	0x3c4d0f7e	0.012515901
124	0x3f11a4f5	0.5689233
125	0x3a9e3db0	0.0012072828
126	0x3e5f9c68	0.21837008
127	0x3ec3034b	0.3808845
128	0xbdabedb8	-0.08394951
129	0x3c913ae7	0.017728282
130	0x3c1c7335	0.009548952
131	0xbdf8f9c7	-0.12157016
132	0xbd91aa83	-0.07112601
133	0x3e671673	0.22567157
134	0xbc943049	-0.01808943
135	0xbcd5f822	-0.026119296
136	0x3fd6d59c	1.6783938
137	0x3febd1c8	1.8423395
138	0xbcc68ace	-0.02423611
139	0x3cdd25c8	0.026995555
140	0x3e70dbb4	0.2352131
141	0x3eac83a2	0.33694178
142	0x3f09ae01	0.53781134
143	0x3ec09571	0.37614015
144	0x399f1e91	0.00030349617
145	0x3c783caa	0.015151182
146	0xbb3b035f	-0.0028535945
147	0xbbe8b02e	-0.0071010804
148	0x3f0c0751	0.54698664
149	0x3edc184a	0.4298728
150	0x3be39b2a	0.006945987
151	0x3bfdbe78	0.007743653
152	0x3ce16008	0.027511612
153	0x3c7d325a	0.015453899
154	0x3e8f5084	0.27991116
155	0x40077509	2.1165183
156	0x3f41cbd7	0.7570166
157	0x3ceb27fa	0.028705586
158	0x3ee8ae79	0.45445612
159	0xbe08d21c	-0.133614
160	0x3cdec841	0.027195098
161	0xbc755803	-0.014974597
162	0x3e6e19d2	0.23252037
163	0xbdaf2101	-0.08551217
164	0x3bd92a36	0.0066273464
165	0xbcfc87be	-0.030826446
166	0xbe2257cb	-0.15853803
167	0xbda133ed	-0.07871232
168	0x3ccceed4	0.025016226
169	0x3ed11ae0	0.40840816
170	0x3f099e07	0.53756756
171	0x3cadd1b6	0.021218162
172	0xbc986b5f	-0.018605886
173	0x3b1dfb33	0.0024106025
174	0x3e349088	0.1763326
175	0x3ee6fa6d	0.45112935
176	0xbd833789	-0.06407077
177	0x3c5d5614	0.013509292
178	0x3c953d77	0.018217785
179	0x3c5ca2f1	0.013466583
180	0xbe1f4ea9	-0.1555735
181	0xbd8497b3	-0.06474247
182	0x3bbe6a08	0.0058109798
183	0x3c0eb1ca	0.00870938
184	0xbe545d13	-0.2073863
185	0xbcf67dc3	-0.030089265
186	0x3f554163	0.833029
187	0x3e70e366	0.23524246
188	0x3eafbaa5	0.34322086
189	0x3e7b0fa6	0.24517688
190	0xba25bcb5	-0.000632237
191	0x3e09fa1d	0.13474317
192	0x3ab04cfb	0.0013450676
193	0xbccff430	-0.025384992
194	0x3cbd44ba	0.02310406
195	0xbe3c0ba5	-0.18363817
196	0xbe3203cd	-0.17384262
197	0xbbc7958c	-0.0060908254
198	0x3ceebe62	0.029143516
199	0x3ec9b4fa	0.39395887
200	0x3e8549a4	0.26032746
201	0x3e807870	0.25091887
202	0xbcf30133	-0.029663658
203	0x3b4acbaf	0.0030944159
204	0x3bc94f83	0.0061435117
205	0xbbf32a2a	-0.007420798
206	0xbb173109	-0.0023069999
207	0xbce2a9cc	-0.027668856
208	0xbbacac85	-0.0052695894
209	0x3ff91ca9	1.9461871
210	0xbcc299c9	-0.023754971
211	0x3e7eef69	0.24896015
212	0x3c994377	0.018708928
213	0x3cf1e8ca	0.029529948
214	0x3c014277	0.007889382
215	0xbbd6b9ae	-0.0065528965
216	0xbdfe1a71	-0.12407387
217	0xbcda1542	-0.026621465
218	0xbe1ea764	-0.15493542
219	0x3e464aa1	0.19364406
220	0x3c71db8a	0.014761815
221	0x3c64a4bb	0.01395529
222	0x3bcbce82	0.006219686
223	0x3e9bdf4b	0.30443797
224	0x3fd828b2	1.6887419
225	0x3ed5f4aa	0.41788226
226	0x3cc03cdb	0.023466518
227	0xbca9c31e	-0.020722922
228	0xbc87f099	-0.016594218
229	0x3e63027b	0.22168915
230	0x3e85678f	0.2605557
231	0x3e6aff84	0.22949034
232	0x400ea436	2.2287726
233	0xbbb4007d	-0.0054932223
234	0xbdfcb001	-0.123382576
235	0xbb8f2670	-0.004368596
236	0x3e6dcf61	0.2322364
237	0xbc043137	-0.008068374
238	0x3ecb71fe	0.39735407
239	0xbdc7e688	-0.09760767
240	0xba3a0f93	-0.00070976577
241	0xbcacafff	-0.021080015
242	0x3c0268a6	0.00795952
243	0x3ccd9b4e	0.02509847
244	0xbcf898de	-0.03034633
245	0xbd94aa48	-0.07259041
246	0x3cf6df73	0.030135846
247	0xbcc6d181	-0.024269821
248	0x3eb84def	0.3599696
249	0xbc44a08d	-0.012001169
250	0xbda37de2	-0.079829946
251	0x3ba01dc9	0.004886363
252	0x3f0a0a48	0.5392194
253	0x3c81edf2	0.015860531
254	0x3dfda6b9	0.123853154
255	0x3eba6084	0.3640176

bias f4 [128]
0	0x3dc8040c	0.09766397
1	0x3e04870d	0.12942143
2	0xbc3113a9	-0.01080791
3	0x3d97a8cf	0.074052446
4	0x3e335505	0.17512901
5	0x3e0744ee	0.13209888
6	0xbb615621	-0.0034383612
7	0x3dbb2e42	0.09139682
8	0x3db49dfa	0.08819194
9	0x3da72737	0.081617765
10	0xbd03eac3	-0.032206308
11	0x3e0d87f3	0.13821392
12	0x3da51446	0.080605075
13	0xbc957ec7	-0.018248929
14	0x3c9e13fd	0.01929664
15	0x3d9948b7	0.074845724
16	0x3ddb6010	0.10711682
17	0x3dbadbdb	0.09123965
18	0x3d8fc7b7	0.070205145
19	0x3dda705d	0.10665963
20	0x3dd68ed6	0.104764625
21	0x3d218278	0.039431065
22	0x3e11d817	0.14242588
23	0x3dc176f8	0.094465196
24	0x3da32a73	0.07967081
25	0x3de1fc4b	0.11034449
26	0x3b809fd4	0.003925303
27	0xbb8e603b	-0.0043449677
28	0x3dcddd1d	0.1005194
29	0x3e05a5c8	0.13051522
30	0x3dd8f28a	0.10593136
31	0x3da9d151	0.08291877
32	0x3ca75f33	0.020431137
33	0x3d5ccb28	0.053904682
34	0x3de47aa3	0.111562036
35	0x3de842e3	0.11340883
36	0x3dea04ee	0.114267215
37	0x3dcbc123	0.09948947
38	0x3d980258	0.07422322
39	0x3d292059	0.041290615
40	0x3d9786c7	0.073987536
41	0x3d974b96	0.07387464
42	0xbc163082	-0.009166839
43	0x3ca41dfc	0.020033829
44	0x3d5c4503	0.053776752
45	0x3d1371a9	0.035997067
46	0x3dd56ce9	0.104211636
47	0xbc57e83c	-0.013177928
48	0x3d87736b	0.06613811
49	0x3bb3fe66	0.005492973
50	0x3e05ca8e	0.1306555
51	0xbb4de9c8	-0.0031419862
52	0x3e02531a	0.12727013
53	0xbced29fa	-0.02895068
54	0x3de2ca4f	0.110737436
55	0x3ddcc82c	0.10780367
56	0x3e0c7dee	0.13719913
57	0x3d5e9dd6	0.054349743
58	0x3cf2331c	0.029565386
59	0x3dbac9a3	0.091204904
60	0xbc20b517	-0.0098088
61	0xb92c8c61	-0.00016455493
62	0x3d9c47de	0.07630895
63	0x3b7ad326	0.0038272827
64	0x3e21eac8	0.15812218
65	0xbc30302b	-0.010753672
66	0x3dae98e5	0.08525256
67	0x3dbdcfa0	0.09268117
68	0x3de5211b	0.11187955
69	0x3dcf26c3	0.10114815
70	0x3c42a6d2	0.011880593
71	0xbce06946	-0.027393948
72	0x3dfb2b58	0.122641265
73	0xbcad0fbd	-0.021125669
74	0x3d7e60bf	0.062103983
75	0xbcd536c0	-0.026027083
76	0x3d551c40	0.052028894
77	0x3c320edb	0.0108678
78	0x3e2188d3	0.1577485
79	0x3dca1620	0.09867501
80	0xbbf0b45a	-0.0073457183
81	0x3df498fc	0.11943242
82	0x3d382c55	0.044964153
83	0x3dd13434	0.10215035
84	0x3e0e2ebd	0.13885017
85	0x3c89c3fb	0.016817084
86	0x3def108c	0.11673078
87	0x3d9ce752	0.07661308
88	0x3c9cf3dc	0.01915925
89	0x3d901714	0.07035652
90	0x3d539b4a	0.051661767
91	0x3de94869	0.11390764
92	0x3da11794	0.07865825
93	0x3de658d1	0.11247409
94	0x3d829ea4	0.063779145
95	0x3bcc9ae6	0.0062440513
96	0x3c0b7fd7	0.008514366
97	0x3d06a5d4	0.03287299
98	0x3d40c0d2	0.047058888
99	0x3df2fee2	0.11865021
100	0x3da1f663	0.07908323
101	0x3e0ea642	0.1393061
102	0xb91eb1fc	-0.00015134359
103	0xbcecd502	-0.028910164
104	0x3dbad8dd	0.09123395
105	0x3d00645c	0.03134571
106	0x3c416790	0.011804476
107	0x3e0d122e	0.13776466
108	0x3df4de1a	0.11956425
109	0xbcd943b6	-0.026521545
110	0x3dcd34d7	0.10019844
111	0xbc02b59d	-0.00797787
112	0x3d8ae43c	0.067818135
113	0x3e271007	0.16314708
114	0x3cbfd43c	0.02341663
115	0x3dbde018	0.09271258
116	0x3d677c2d	0.056514908
117	0xb24489c9	-1.144003e-08
118	0x3d85bf57	0.06530636
119	0x3c9002fd	0.01757955
120	0x3e01f2a6	0.1269022
121	0xbb16ae23	-0.0022991977
122	0x3ce08750	0.027408272
123	0x3dfa61de	0.12225698
124	0x3d8cdda4	0.06878212
125	0x3c87d7b1	0.016582342
126	0x3e0300bc	0.12793249
127	0xbbd4bc7a	-0.0064921947

weight f4 [290, 128]
0	0x3db6345b	0.08896705
1	0x3d88abca	0.06673391
2	0x3dc28b2f	0.094992034
3	0x3e3a66b7	0.18203245
4	0x3da6a9bb	0.08137842
5	0xbda067a9	-0.078322716
6	0x3cd5b4fe	0.02608728
7	0x3da7663c	0.081737965
8	0x3d4abb4f	0.049495038
9	0x3e2d3619	0.16915168
10	0x3ca1efee	0.019767728
11	0x3d41f844	0.047355905
12	0x3d99ca7d	0.07509325
13	0xbba6c645	-0.0050895535
14	0xbaeb0c92	-0.0017932823
15	0x3e4e8eb9	0.20171632
16	0x3d8a3bcc	0.067496866
17	0x3dae7105	0.085176505
18	0x3dc1d399	0.09464187
19	0x3dbca243	0.092106365
20	0x3d87ff4f	0.06640493
21	0xbbc67ac0	-0.0060571134
22	0xbcb70c90	-0.022344857
23	0x3d8d54a6	0.06900911
24	0x3e280ddf	0.16411541
25	0x3d58cefd	0.052931774
26	0x3ce0be50	0.027434498
27	0xbc0c639f	-0.008568673
28	0x3dc0ce19	0.0941431
29	0xbd30ffb6	-0.043212615
30	0x3e10ceab	0.14141338
31	0xbd39625a	-0.04525981
32	0xbc65fc3a	-0.014037186
33	0x3e2a648c	0.16639918
34	0x3d8f0436	0.06983225
35	0x3db86261	0.09003139
36	0x3d95a360	0.07306552
37	0x3e103932	0.14084318
38	0x3e44f2f2	0.19233301
39	0x3e57bd5a	0.21068326
40	0x3e1709cb	0.1474983
41	0x3e003fae	0.12524292
42	0x3c7fdd92	0.015616791
43	0xbcf4c0a2	-0.02987701
44	0x3df560ef	0.11981379
45	0x3e2c834e	0.16846964
46	0x3def7608	0.116924345
47	0x3cde856c	0.02716323
48	0x3e18ce5e	0.14922473
49	0x3c3ed618	0.011647724
50	0xbcf50b9c	-0.029912762
51	0xbcf91816	-0.030406993
52	0x3e1fc4b7	0.15602385
53	0x3c847cd4	0.016172804
54	0x3de11a10	0.10991299
55	0x3d91719a	0.07101746
56	0x3d6394ca	0.05556182
57	0x3e278ba5	0.16361864
58	0x3e03b05f	0.12860249
59	0x3df50a43	0.11964848
60	0x3c0a3615	0.008435746
61	0xbd02f15e	-0.031968467
62	0x3d5215f7	0.05129048
63	0xbce23041	-0.0276109
64	0x3d45be1c	0.048277006
65	0x3c6fd412	0.014637964
66	0xbd2f0b7c	-0.04273556
67	0x3c934bf9	0.017980563
68	0x3dc5323f	0.09628724
69	0x3d849179	0.06473059
70	0x3e33c900	0.17557144
71	0x3d01262d	0.031530548
72	0x3e194b03	0.14970021
73	0xbc35737f	-0.0110749
74	0x3def6f66	0.116911694
75	0x3cab10e8	0.020882085
76	0x3e39ad0b	0.18132417
77	0xbcfa5abe	-0.030560847
78	0xbd43142b	-0.047626656
79	0x3da07937	0.0783562
80	0x3b3cb06f	0.0028791686
81	0x3d67fe2e	0.05663889
82	0x3de063d4	0.10956541
83	0x3dbb4242	0.09143497
84	0x3dc29001	0.09500123
85	0x3e17d1e0	0.14826155
86	0x3dceca67	0.10097199
87	0x3d303172	0.043015905
88	0x3de692e8	0.11258489
89	0x3d96489a	0.073380664
90	0xbd355b9b	-0.044276815
91	0x3d9ec679	0.077526994
92	0x3d9ca8b4	0.07649365
93	0x3d894129	0.067018814
94	0x3e24502e	0.16046211
95	0x3d021961	0.031762484
96	0x3c8b217c	0.01698374
97	0x3de7360c	0.112896055
98	0x3e256a6b	0.16153876
99	0x3dd03d0e	0.10167895
100	0x3e373ae1	0.17893554
101	0x3e2c06af	0.16799425
102	0x3e24a0b0	0.16076922
103	0x3bc64d14	0.006051669
104	0x3d56bb78	0.052424878
105	0x3e07ac5d	0.13249345
106	0xbcf4ac83	-0.029867416
107	0xbb3743b8	-0.0027963948
108	0x3d6434b6	0.05571433
109	0x3cf776ca	0.03020801
110	0x3d8400a1	0.064454325
111	0xbced5842	-0.028972749
112	0x3d2cc930	0.042184055
113	0x3dad1c75	0.084526934
114	0x3e3c6dea	0.18401304
115	0x3d81f6ce	0.063459024
116	0x3e11ccdc	0.14238304
117	0xbc400eb0	-0.011722252
118	0x3e39174d	0.18075295
119	0xbd0abf64	-0.03387393
120	0x3d3bc936	0.045846187
121	0x3cebf122	0.028801505
122	0xbcdcb312	-0.026940856
123	0x3d3cdfe3	0.046111953
124	0x3d314bee	0.043285303
125	0xbcca3d22	-0.024687354
126	0x3d2ded35	0.042462546
127	0xbcfcbb0a	-0.030850906
128	0x3d8444b8	0.064584196
129	0x3d2b4a96	0.041819178
130	0x3e11b963	0.14230876
131	0x3e16e75b	0.14736693
132	0x3e69a2c0	0.2281599
133	0xbdaaa2b8	-0.083318174
134	0xbccb6360	-0.02482766
135	0x3dab9e1a	0.08379765
136	0x3d80ddc9	0.06292302
137	0x3e307766	0.17233047
138	0x3bb5cec7	0.0055483314
139	0x3db74d74	0.0895032
140	0x3d4bae46	0.049726747
141	0x3c70f8ab	0.014707725
142	0x3c931029	0.017952042
143	0x3e2607f7	0.16213976
144	0x3d8f8aea	0.07008918
145	0x3da72153	0.08160653
146	0x3d81ca72	0.063374415
147	0x3da2513c	0.079256505
148	0x3db7551c	0.0895178
149	0x3d00543b	0.03133033
150	0xbdc46c42	-0.09590961
151	0x3d9be087	0.076111846
152	0x3e26fa0c	0.16306323
153	0x3d94bac2	0.07262184
154	0xbcb68af2	-0.022283051
155	0x3cab76e7	0.02093072
156	0x3d92d46d	0.07169423
157	0xbdb44d7b	-0.08803841
158	0x3e0f6c4c	0.14006156
159	0xbd698873	-0.057014894
160	0xbb5071f0	-0.0031806193
161	0x3df76a91	0.12080873
162	0x3d851db2	0.064998046
163	0x3d13ae36	0.036054812
164	0x3d56744b	0.052357
165	0x3e306770	0.17226958
166	0x3e234ab2	0.15946463
167	0x3e13d3ef	0.14436315
168	0x3e0aab36	0.13541874
169	0x3e0545dd	0.13014932
170	0x39f0b05b	0.00045907762
171	0xbcda13b2	-0.02662072
172	0x3e02d148	0.12775147
173	0x3e3a7fc1	0.18212797
174	0x3e2d39d9	0.16916598
175	0xbcd0c6fe	-0.025485512
176	0x3e14aeb9	0.14519776
177	0x3c67acf1	0.014140354
178	0xbdd1d082	-0.10244848
179	0xbbd75e24	-0.0065725017
180	0x3e1b11f2	0.15143564
181	0x3c3d03e8	0.011536576
182	0x3dc07508	0.09397322
183	0x3db96eef	0.09054362
184	0x3d7173c1	0.058948282
185	0x3df63b72	0.12023057
186	0x3e2409c5	0.16019352
187	0x3e1dd43d	0.15412994
188	0xba101eff	-0.0005497783
189	0x3c651216	0.013981363
190	0x3d899c22	0.06719233
191	0xbd021735	-0.031760413
192	0x3d8d7646	0.069073245
193	0xbb349e62	-0.0027560224
194	0xbdb1714a	-0.08664186
195	0x3d6e36ff	0.058157917
196	0x3d8d0b2c	0.068868965
197	0x3d22927a	0.039690472
198	0x3e222749	0.15835299
199	0xbcf50aaa	-0.029912312
200	0x3e2c0227	0.16797696
201	0xbc4b008f	-0.01239027
202	0x3e3da56c	0.18520135
203	0xba92b1ab	-0.0011191865
204	0x3debd1bc	0.11514613
205	0x3c8df25a	0.017327476
206	0xbd474381	-0.04864836
207	0x3d0822fa	0.03323648
208	0xbc85081f	-0.016239224
209	0x3dac203d	0.084045865
210	0x3e06acc7	0.13151847
211	0x3d8b4d7e	0.0680189
212	0x3d3f2741	0.046668295
213	0x3e00571a	0.12533227
214	0x3d58d906	0.052941345
215	0x3d8a48f4	0.06752196
216	0x3e1dbcfa	0.1540412
217	0x3db7f4b4	0.0898222
218	0xbd4b5e6a	-0.049650587
219	0x3d7efe6f	0.062254366
220	0x3d86830a	0.065679625
221	0x3d66bc9f	0.056332227
222	0x3e0012dd	0.12507196
223	0x3cfd54b3	0.030924177
224	0x3c984d37	0.018591506
225	0x3e270026	0.1630865
226	0x3e35e4ac	0.17763013
227	0x3db2e424	0.087349206
228	0x3d121d5f	0.03567254
229	0x3e0bf1d7	0.13666473
230	0x3e377c09	0.1791841
231	0xbcb9e347	-0.022691382
232	0x3dba5ec6	0.09100108
233	0x3e3182f5	0.17335112
234	0xbb4d7968	-0.0031352881
235	0xbd92b6f4	-0.07163802
236	0x3d08854c	0.033330247
237	0xbce2a3fa	-0.02766608
238	0x3d4f3ea0	0.050596833
239	0xbc970337	-0.01843415
240	0x3d845b34	0.06462708
241	0x3dc120de	0.09430097
242	0x3e39a3a0	0.18128824
243	0x3db7988e	0.08964644
244	0x3e08e4ee	0.1336858
245	0xbc4a7f5a	-0.012359465
246	0x3e2af6dc	0.16695732
247	0xbc839d22	-0.016066138
248	0x3d0ccbe7	0.034374144
249	0x3c8b62b3	0.017014837
250	0x3cca5ac3	0.024701482
251	0x3dc584d4	0.096444756
252	0x3dc127ec	0.094314426
253	0xbc8090bf	-0.01569402
254	0x3d9ec620	0.07752633
255	0xbcc9f63c	-0.024653547

bias f4 [290]
0	0xbc75d96f	-0.0150054535
1	0x3cecb761	0.028896036
2	0x3ce82ce7	0.028341724
3	0xbaf4b424	-0.0018669409
4	0x3d1d151c	0.03835021
5	0x3b46d9f8	0.0030342322
6	0xbc3001bc	-0.010742601
7	0x3c556126	0.01302365
8	0x3c2b7edb	0.010467256
9	0x3d11c54b	0.035588544
10	0xbcba7361	-0.022760095
11	0x3d634537	0.05548593
12	0x3be377f9	0.006941792
13	0x3d49b5cc	0.04924564
14	0x3cda37b6	0.026637893
15	0x3bb30486	0.0054631857
16	0x3cd67c8b	0.026182434
17	0x3c7e779b	0.015531446
18	0x3ca35301	0.01993704
19	0x3d6ddc3a	0.058071353
20	0x3d31fd3f	0.043454405
21	0x3c92594f	0.017864851
22	0xba0b49c6	-0.00053134223
23	0x3d2f9784	0.042869106
24	0x3b9ab62c	0.0047214236
25	0x3ced537b	0.02897047
26	0x3cee413d	0.029083842
27	0x3d2cbe61	0.042173747
28	0x3c8908fe	0.01672792
29	0xbcff7290	-0.031182557
30	0x3d267a37	0.040643897
31	0xbcb7099e	-0.022343453
32	0x3ccf1df3	0.025282836
33	0x3cb9b936	0.022671323
34	0x3d35f92e	0.04442709
35	0xbc7917fd	-0.015203473
36	0xbcd5b9ba	-0.026089538
37	0x3c1f16ed	0.009710056
38	0x3d86b615	0.06577698
39	0x3d71c905	0.059029598
40	0x3d0a1765	0.033713717
41	0x3d112206	0.035432838
42	0x3cbd62ed	0.02311846
43	0x3abacb47	0.0014251255
44	0x3d2c7a6c	0.042108938
45	0x3d5ba150	0.053620636
46	0x3ce7ca5e	0.028294738
47	0x3d70c7dd	0.058784354
48	0x3c9827e0	0.018573701
49	0x3d7f3d77	0.062314477
50	0x3d17fe66	0.037107848
51	0x3daf1bce	0.08550225
52	0x3cc92ee2	0.024558488
53	0x3b9607da	0.0045785727
54	0xbb8e459b	-0.0043417937
55	0x3b261bb5	0.0025346105
56	0x3d863c7d	0.06554506
57	0x3d9795d0	0.07401621
58	0xbc20b5dd	-0.009808985
59	0xbc43ff53	-0.0119627295
60	0xbcac8420	-0.021059096
61	0xbc06c6ae	-0.00822608
62	0x3d09d752	0.03365261
63	0x3d4c9de6	0.04995527
64	0x3d534b4b	0.051585477
65	0x3d1b2415	0.037876207
66	0xbbf6b2ce	-0.0075286394
67	0x3c86a64c	0.016436718
68	0x3cd8422b	0.026398739
69	0x3d608cd4	0.054821804
70	0x3d8240e5	0.06360034
71	0x3d0eacf7	0.03483292
72	0x3cc518c7	0.024059666
73	0xbcd08fbb	-0.025459161
74	0x3d0c4361	0.034243945
75	0x3cff35e7	0.031153632
76	0x3c874381	0.01651168
77	0xbd4851b5	-0.048906047
78	0xbbf4531b	-0.007456196
79	0xbc29363b	-0.010327871
80	0x3cce14bc	0.025156371
81	0x3d07e8dc	0.033181056
82	0x3d90f5be	0.070781216
83	0xbbf9fbd3	-0.0076288967
84	0x3a91a23f	0.0011110975
85	0x3d1d5495	0.03841074
86	0x3c5bd263	0.013416859
87	0x3ad5801a	0.0016288788
88	0x3d16a211	0.036775652
89	0x3c9d2ca7	0.019186331
90	0x3d4917c0	0.049094915
91	0x3caa38e0	0.020779073
92	0x3bdacf09	0.0066775125
93	0xbcd9bc9e	-0.026579197
94	0x3d3a2dba	0.045453764
95	0xbc3e05cc	-0.011598062
96	0xbc232d6c	-0.00995956
97	0x382018b6	3.8169987e-05
98	0x3ceda944	0.029011376
99	0x3cf0faf2	0.029416535
100	0xbbd2321b	-0.0064146644
101	0x3b9014d4	0.004397014
102	0x3d90609f	0.07049679
103	0xbca6e0d0	-0.02037087
104	0x3d59ce5a	0.053175308
105	0xbca91dea	-0.020644147
106	0xbabd2c51	-0.0014432763
107	0x3cbcf249	0.02306475
108	0x3b6a5345	0.00357552
109	0x3d22a147	0.039704587
110	0xbad46750	-0.0016205106
111	0xbd46410d	-0.04840188
112	0xbbd42741	-0.006474406
113	0xbcf07cf3	-0.029356455
114	0xbc9a0614	-0.018801726
115	0x3cbf4ed1	0.023353012
116	0x3c32c18d	0.010910404
117	0x3cd3e881	0.025867702
118	0x3d1e1a40	0.038599253
119	0x3ce59896	0.02802686
120	0xbb683d4f	-0.0035436933
121	0xbbbd09a8	-0.0057689734
122	0x3d6063e9	0.05478278
123	0xbce72471	-0.028215619
124	0xbcba7b2d	-0.022763813
125	0xbc42b28c	-0.011883389
126	0x3b9700cf	0.0046082507
127	0x398c9f43	0.0002682154
128	0x3a2cdf84	0.0006594586
129	0x3c98e3ba	0.018663276
130	0x3cacf429	0.021112518
131	0xbb2a677a	-0.0026001618
132	0x3d4ea8e3	0.05045403
133	0x3b32edb8	0.0027302336
134	0xbaabf639	-0.0013119645
135	0xbc0d599c	-0.008627322
136	0xbccf1099	-0.025276469
137	0xbd067640	-0.032827616
138	0xbd133efa	-0.03594873
139	0x3ca306d9	0.019900726
140	0xbca0c4d5	-0.019625107
141	0x3d51efff	0.05125427
142	0x3d55f89e	0.052239053
143	0xbc265a46	-0.010153359
144	0x3c9e7a98	0.019345567
145	0x3d0d6051	0.034515683
146	0x3d181cd2	0.03713686
147	0x3c77d4b9	0.015126401
148	0xbc83952f	-0.016062347
149	0x3d81b486	0.0633326
150	0x3c28daee	0.010306103
151	0x3d4697f5	0.04848476
152	0xbbb1e338	-0.005428698
153	0xbd4cf7d1	-0.050041024
154	0xbc4ee858	-0.012628637
155	0x3c994ed1	0.01871434
156	0x3cb68ae2	0.022283021
157	0x3d0628f9	0.03275392
158	0xbc946722	-0.018115584
159	0x3d4e7fe3	0.05041493
160	0x3cb89759	0.022533106
161	0xbc38f6c1	-0.0112892995
162	0x3d346e7e	0.044050686
163	0xb99bc807	-0.00029712936
164	0x3abf391f	0.0014589167
165	0x3d235f16	0.039885603
166	0x3d033bb8	0.032039374
167	0x3d38f913	0.04515941
168	0xbc03345e	-0.008008091
169	0x3cbdf015	0.02318577
170	0x3c64e417	0.0139703965
171	0x3d236769	0.03989354
172	0x3d83eb21	0.06441332
173	0x3cbe3ade	0.02322143
174	0x3d39e729	0.045386467
175	0x3d3a5b54	0.045497254
176	0x3c9cad37	0.019125564
177	0xbc48c768	-0.012254573
178	0xbd086d5e	-0.033307426
179	0x3c8797d8	0.016551897
180	0xbca42d11	-0.02004102
181	0x3c9b1641	0.01893151
182	0xbc32a31e	-0.010903148
183	0x3c2c04e9	0.010499218
184	0x3bf671d6	0.0075208945
185	0x3d06a66c	0.032873556
186	0xbd24e67e	-0.040258877
187	0xbcd7edd1	-0.026358517
188	0x3bde4bf9	0.006783959
189	0x3d4b01c0	0.049562216
190	0xbc2b48bc	-0.010454353
191	0xbb150e66	-0.0022744178
192	0x3cc98f2d	0.024604404
193	0x3d21505a	0.03938327
194	0xbc2436c7	-0.010022826
195	0x3cc01513	0.023447549
196	0x3b1daf86	0.002406092
197	0x3c854a72	0.01627085
198	0x3c4eaaff	0.012614011
199	0xbcb8ffc4	-0.022582896
200	0x3ce8b0b6	0.028404575
201	0xbd30bcb5	-0.043148715
202	0x3c88aecd	0.016684914
203	0xbc8a184b	-0.016857287
204	0xbc88cb49	-0.016698496
205	0x3d3caf44	0.046065584
206	0xbc9f3059	-0.019432234
207	0x3ce6d77a	0.02817892
208	0x3cf65313	0.03006891
209	0x3d0a3793	0.033744406
210	0x3d1ac0b1	0.03778142
211	0xbd26e572	-0.04074616
212	0x3d0cefc9	0.034408364
213	0x3bb332e2	0.005468712
214	0x3d2e9f88	0.04263261
215	0x3d58f140	0.05296445
216	0x3c462c3f	0.01209551
217	0x3d5aff9d	0.053466428
218	0xbca2e180	-0.019882917
219	0x3cc96ff7	0.024589522
220	0x3c678a2b	0.014132063
221	0x3ce3ae0f	0.027792959
222	0x3d0b792d	0.03405111
223	0x3d131e79	0.035917733
224	0x3d60f6be	0.05492281
225	0x3ca904f2	0.02063224
226	0x3d3dc8ce	0.04633408
227	0xbca6eaed	-0.020375693
228	0x3d5e4563	0.05426539
229	0x3b9b6235	0.004741932
230	0xbc21726c	-0.00985394
231	0xbb5b39c7	-0.0033451186
232	0x3c1f582c	0.009725612
233	0x3a4ebe8a	0.0007886669
234	0x3d050f65	0.032485384
235	0x3c42d3a8	0.011891283
236	0xbce896ae	-0.028392162
237	0x3d1eab03	0.03873731
238	0x3cbe5aaf	0.0232366
239	0x3d09965d	0.033590663
240	0xbc86445f	-0.016390024
241	0x3b9fc39b	0.004875613
242	0x3cb35cf9	0.021894919
243	0x3d1770e6	0.036972903
244	0x3c83cb90	0.016088277
245	0x3cd7bf5e	0.026336368
246	0xbc7fe99b	-0.015619661
247	0x3d7c3f95	0.061584074
248	0x3d09bb2d	0.03362577
249	0x3d0ea82a	0.034828342
250	0xbc47ffb7	-0.012206963
251	0x3d60fd70	0.054929197
252	0x3bb135f3	0.0054080426
253	0x3c81b171	0.015831681
254	0xbcfdc02f	-0.03097543
255	0x3cb85448	0.022501126
